checkpoint.pth (torch_old, 91850 bytes, 8 tensors)

fc1.weight f4 [96, 37]
0.033582468 0.084344454 -0.09493263 -0.14995211 -0.084983855 0.106697835 0.049808852 0.053520065
-0.089202255 -0.48007283 -0.06846778 -0.024091663 -0.07627663 -0.09039862 0.007611727 0.19253439
-0.11786426 0.03340248 -0.097477354 -0.46443772 0.07185461 0.11469628 0.044465035 0.16828084
0.047401186 -0.00074384443 0.40369412 -0.15461282 -0.2219682 -0.44012386 -0.07038231 0.18508874
-0.08043553 -0.011177308 -0.1781443 -0.20421293 -0.011364687 0.040915154 0.06253265 0.10308989
0.11430064 -0.07219211 0.11232404 -0.23002015 -0.15177391 -0.23636284 -0.68074554 0.017026963
-0.022721019 0.053823825 0.06611301 0.14533019 -0.00953092 0.05332055 0.07844661 0.009018039
0.1734133 -0.20898122 -0.12184086 -0.016448852 0.11812826 0.3669866 -0.13295335 0.054924276
0.10173009 0.015380736 0.22275308 0.0787844 0.029982673 0.12604393 -0.08351907 0.12481572
0.011159954 -0.010426035 0.13158481 0.09105912 0.082534604 -0.34958428 -0.029197542 -0.2680083
-0.15402545 0.2992354 -0.10345648 -0.3726509 -0.01971529 -0.0834294 -0.05148742 0.03527198
0.11952463 -0.012186905 -0.11317583 0.16093673 -0.08307896 -0.29885745 -0.27483842 -0.13879688
0.1452059 0.068537965 -0.089639865 -0.36949077 0.21955024 0.24089776 -0.27876773 -0.61388695
-0.0749379 -0.22559322 -0.08333849 -0.17970939 0.28164664 0.027569175 -0.017210906 0.012823721
-0.044582907 0.07421543 0.05067185 -0.1391068 -0.11688733 -0.051901426 0.0579141 0.022017902
-0.00091658166 0.124001056 -0.15576603 -0.14458452 -0.18441075 -0.48163018 -0.12241384 -0.09968547
-0.07501073 -0.14481932 -0.023020763 0.27904975 -0.7371342 -0.23638694 -0.044023555 -1.2115222
-0.12670857 -0.03190122 0.074840106 0.06663813 0.17076336 0.0628623 0.18150282 -0.063475646
-0.24636355 -0.23500411 0.09992442 -0.044155274 -0.10147148 -0.10053829 -0.10339581 -0.12725522
0.0069533787 0.14905886 0.13405879 -0.118532375 -0.11236932 -0.37896934 -0.039497208 -0.047656145
0.007041623 -0.039923824 -0.15375237 -0.10491114 -0.026138905 -0.018318934 -0.025778247 0.011936686
-0.20590512 0.14471264 0.15305865 0.07696831 0.84408426 0.11373407 -0.12050486 0.06659226
-0.0003585579 -0.05202886 0.23624702 -0.33802155 0.025907457 0.07788528 0.43187526 -0.0025158166
-0.011750506 0.045294233 -0.08679232 -0.08973275 -0.11200854 0.007904648 0.19702733 -0.04934248
-0.31116453 -0.19833751 -0.8130073 -0.11241163 -0.1279113 0.01664522 -0.14951453 -0.010338462
-0.0007013723 0.112860285 -0.21508913 -0.14391373 -0.11073499 0.054277536 -0.0024696167 0.044974834
0.03164874 0.043645523 0.013728708 -0.054450214 -0.0112523055 -0.17813607 0.0056625684 -0.10001314
-0.10459861 -0.0048576985 0.10613265 -0.04861338 -0.07036644 0.042346656 0.042106017 -0.046397727
-0.07508086 0.10012089 -0.10319182 -0.15120023 -0.018026337 0.15985025 0.15806295 0.7592411
-0.009083638 0.16619769 0.122921295 -0.10073418 -0.009148068 -0.08807034 -0.085756175 0.0393591
0.05988107 -0.026198566 -0.09773459 0.05459723 0.09593231 -0.10288743 0.16134356 -0.08301837
0.0006954995 -0.059620764 -0.11409303 -0.14059332 0.17771782 -0.08360004 -0.08013902 -0.069357164
00000000: c58d 093d c9bc ac3d 0a6c c2bd 0c8d 19be
00000010: 040c aebd 6584 da3d 5e04 4c3d db37 5b3d
00000020: acaf b6bd 1bcc f5be d638 8cbd e15b c5bc
00000030: ec36 9cbd e922 b9bd cb6b f93b bc27 453e
00000040: d162 f1bd 0ad1 083d 35a2 c7bd c8ca edbe
00000050: 8328 933d e2e5 ea3d f820 363d d051 2c3e
00000060: bf27 423d 8efe 42ba ffb0 ce3e d352 1ebe
00000070: a24b 63be ea57 e1be 9a24 90bd e787 3d3e
00000080: 62bb a4bd 0721 37bc 766b 36be 321d 51be
00000090: f432 3abc a696 273d 1e11 803d cb20 d33d
000000a0: 7416 ea3d 75d9 93bd 250a e63d 678a 6bbe
000000b0: 9f6a 1bbe 1a09 72be 5745 2ebf 217c 8b3c
000000c0: 6e21 babc 5f76 5c3d 4266 873d 70d1 143e
000000d0: 9327 1cbc a666 5a3d 9ea8 a03d 66c0 133c
000000e0: 4293 313e 2cff 55be b387 f9bd bebf 86bc
000000f0: 3bed f13d abe5 bb3e ec24 08be 47f8 603d
00000100: de57 d03d 7cff 7b3c 6219 643e b759 a13d
00000110: 399e f53c a911 013e 0c0c abbd 629f ff3d
00000120: 3dd8 363c f6d1 2abc 2bbe 063e 347d ba3d
00000130: e707 a93d b6fc b2be af2f efbc 6238 89be
00000140: d9b8 1dbe 6235 993e fee0 d3bd 19cc bebe
00000150: f681 a1bc 09dd aabd 79e4 52bd 5a79 103d
00000160: 54c9 f43d 96ab 47bc bbc8 e7bd 99cc 243e
00000170: 4d25 aabd d803 99be 9fb7 8cbe c520 0ebe
00000180: dbb0 143e a25d 8c3d 1b95 b7bd e52d bdbe
00000190: c7d1 603e e7ad 763e a5ba 8ebe b227 1dbf
000001a0: 0b79 99bd e901 67be 5fad aabd bd05 38be
000001b0: fd33 903e c0d8 e13c e3fd 8cbc 961a 523c
000001c0: 919c 36bd 42fe 973d 498d 4f3d 0372 0ebe
000001d0: a062 efbd 9796 54bd 5637 6d3d e35e b43c
000001e0: c146 70ba 44f4 fd3d 2181 1fbe f70d 14be
000001f0: 2cd6 3cbe 3b98 f6be 1bb4 fabd e527 ccbd
00000200: 3a9f 99bd 844b 14be 0a96 bcbc 9cdf 8e3e
00000210: d4b4 3cbf 6b0f 72be 0b52 34bd 2913 9bbf
00000220: e4bf 01be dbaa 02bd c545 993d 9279 883d
00000230: 97dc 2e3e f3bd 803d e0db 393e 85ff 81bd
00000240: ba46 7cbe eba4 70be 2da5 cc3d 29dc 34bd
00000250: 48d0 cfbd 05e7 cdbd 2fc1 d3bd 314f 02be
00000260: 2bd9 e33b e3a2 183e b546 093e 1ac1 f2bd
00000270: e321 e6bd 4508 c2be d3c7 21bd 1733 43bd
00000280: 6abd e63b 2a87 23bd 4371 1dbe a7db d6bd
00000290: 4221 d6bc 9711 96bc e72c d3bc 1792 433c
000002a0: cbd8 52be 8d2f 143e 68bb 1c3e 90a1 9d3d
000002b0: e815 583f 68ed e83d 41cb f6bd 8661 883d
000002c0: d4fc bbb9 371c 55bd bdea 713e 2911 adbe
000002d0: e03b d43c 5182 9f3d c11e dd3e 66e0 24bb
000002e0: 3285 40bc 7286 393d 2cc0 b1bd cec5 b7bd
000002f0: bc64 e5bd 7f82 013c 88c1 493e 571b 4abd
00000300: f550 9fbe fd18 4bbe 3f21 50bf 1238 e6bd
00000310: 2efb 02be 8e5b 883c 561a 19be a762 29bc
00000320: 4cdc 37ba 4b23 e73d 5340 5cbe 1f5e 13be
00000330: 07c9 e2bd 1f52 5e3d 4bd9 21bb 8837 383d
00000340: 1ca2 013d a6c5 323d 60ee 603c 3007 5fbd
00000350: 975b 38bc 4d69 36be 118d b93b b0d3 ccbd
00000360: cc37 d6bd 542d 9fbb 135c d93d d31e 47bd
00000370: 481c 90bd b073 2d3d 5c77 2c3d 8b0b 3ebd
00000380: fec3 99bd 2e0c cd3d 3c56 d3bd 3cd4 1abe
00000390: f8ab 93bc c9af 233e 41db 213e a05d 423f
000003a0: 8ad3 14bc ba2f 2a3e 29be fb3d b94d cebd
000003b0: c7e1 15bc 395e b4bd efa0 afbd 0237 213d
000003c0: da45 753d 609e d6bc 1329 c8bd 58a1 5f3d
000003d0: 2978 c43d a5b6 d2bd 3f37 253e 8905 aabd
000003e0: 2e52 363a e734 74bd 9ba9 e9bd b2f7 0fbe
000003f0: a9fb 353e 7f36 abbd ed1f a4bd 210b 8ebd

fc1.bias f4 [96]
0.04802451 -0.026117614 -0.15520589 -0.095165536 0.18375038 -0.18062983 -0.092163235 -0.08821777
0.059570465 -0.18813062 -0.040144086 0.09715359 0.094089426 0.087346084 -0.004878734 -0.2203496
-0.046023656 -0.16149464 -0.12772188 0.050437454 -0.022234358 0.23218372 -0.13437831 -0.08319992
0.2507956 -0.12155498 0.120199464 0.058360506 -0.13679995 0.09760576 -0.08996051 -0.12000029
-0.12741545 -0.086199276 0.04287237 -0.13808437 0.061841503 -0.033617638 0.08413755 0.007284025
0.074574344 -0.059311796 0.056635175 -0.0511342 -0.08757359 0.07698562 -0.11880451 -0.17509155
-0.18151063 -0.121410236 -0.109906 0.09024039 0.0652254 0.01157111 0.10652278 0.019167949
-0.1653023 -0.00896866 -0.048663948 -0.11073919 0.018467095 -0.058726825 -0.103304744 0.008112877
-0.105506696 0.15708743 0.015058301 0.1630504 0.024927452 0.055073317 -0.032975297 -0.13115627
0.05207334 -0.12618789 -0.07831789 -0.09116424 -0.17894113 -0.038447063 -0.0050902213 -0.015327631
0.2234081 0.033670466 -0.08715941 -0.05253242 -0.07156897 -0.09801678 -0.03418145 -0.0113821495
-0.050441783 -0.044907447 -0.0017871553 0.19496518 0.08861881 -0.13738237 0.117687725 -0.08715427
00000000: 59b5 443d 9bf4 d5bc 4bee 1ebe 26e6 c2bd
00000010: 0f29 3c3e 07f7 38be 14c0 bcbd 85ab b4bd
00000020: 2900 743d 50a5 40be 206e 24bd 76f8 c63d
00000030: f5b1 c03d 81e2 b23d c9dd 9fbb 53a3 61be
00000040: 4d83 3cbd da5e 25be 86c9 02be 8197 4e3d
00000050: d424 b6bc 92c1 6d3e 789a 09be b864 aabd
00000060: 4868 803e d1f1 f8bd 232b f63d 6d0b 6f3d
00000070: 4915 0cbe 87e5 c73d 373d b8bd b6c2 f5bd
00000080: 3279 02be 3f89 b0bd f09a 2f3d fd65 0dbe
00000090: 844d 7d3d a6b2 09bd 4f50 ac3d d5ae ee3b
000000a0: 6fba 983d edf0 72bd 49fa 673d 1872 51bd
000000b0: c859 b3bd a3aa 9d3d c74f f3bd 334b 33be
000000c0: ecdd 39be eea5 f8bd 6616 e1bd f4cf b83d
000000d0: e594 853d c194 3d3c 9e28 da3d 1a06 9d3c
000000e0: 0245 29be 49f1 12bc d953 47bd 3acb e2bd
000000f0: 4e48 973c 8a8b 70bd 7091 d3bd dfeb 043c
00000100: e513 d8bd 87db 203e 18b7 763c aff6 263e
00000110: a834 cc3c 8f94 613d 1b11 07bd d44d 06be
00000120: db4a 553d 6637 01be 2165 a0bd 51b4 babd
00000130: 583c 37be ab7a 1dbd dfcb a6bb be20 7bbc
00000140: 18c5 643e 0bea 093d a280 b2bd 3c2c 57bd
00000150: c192 92bd 06bd c8bd d901 0cbd 327c 3abc
00000160: 0b9c 4ebd dff0 37bd fb3e eaba f4a4 473e
00000170: c77d b53d f7ad 0cbe 4306 f13d f07d b2bd

fc2.weight f4 [96, 96]
-0.06544482 0.022197552 0.03091544 -0.1579137 0.039506454 -0.0036024742 -0.06451076 0.002393617
0.034972176 0.028588153 0.053549524 0.10953319 -0.10920231 0.073933 -0.1271356 0.13136712
-0.004531752 0.065761186 -0.044215687 0.08190695 -0.13555323 -0.004542996 0.06263061 0.08321541
0.029129356 0.030695075 -0.22219938 -0.03221796 0.038220234 0.039570957 0.13756095 -0.05820672
-0.012917903 -0.09010515 -0.049119446 -0.07349284 0.10771357 -0.040196244 -0.02714419 0.0010527071
0.06558382 -0.04328717 0.05465837 -0.047333762 0.003570486 -0.0065823 -0.07671579 0.1860082
-0.0017253264 -0.053740546 -0.112294294 -0.057840366 0.046449654 -0.09618849 -0.0020257889 -0.07901268
0.028249936 -0.031348336 0.09406478 0.113850646 -0.058827866 0.0414957 -0.072554804 0.12925254
0.0767593 -0.101444066 0.034913365 -0.061822012 -0.08886608 0.084298454 -0.048618145 -0.0075600888
0.17403184 0.18595335 0.14927922 -0.01621814 -0.09589065 -0.13214388 -0.0567795 0.03829756
0.0011916017 -0.043381266 0.03293883 0.07996856 -0.08798366 0.018652486 0.03330375 0.0011535268
-0.13401888 0.06815509 0.027740212 -0.00022533437 0.14377686 0.031781916 -0.01119099 0.056395665
-0.035867605 -0.05714039 0.03810149 -0.11695767 0.014231993 -0.054740828 -0.007980241 0.07635546
-0.031267256 0.021273645 -0.026779322 0.026147999 0.016920617 -0.040262338 -0.017430795 0.07439943
0.019326352 -0.03273098 0.035479568 0.008744191 0.07621943 -0.012605561 -0.028016599 0.088568375
0.034711692 -0.03653919 -0.07646861 -0.043535203 -0.02939983 -0.08763006 0.043352623 0.09133684
-0.16408727 0.023985252 -0.014706842 -0.040557493 -0.034544688 -0.007634224 -0.045050528 -0.046131503
-0.058283314 -0.085805394 -0.010544375 -0.051609993 0.033504907 0.026241962 0.0677008 -0.051834226
0.06441234 -0.050109405 -0.07262106 0.032224912 0.023827322 0.06746475 -0.08286663 0.042312335
0.015291278 0.066112585 -0.038214535 -0.036351237 -0.04919808 0.0026404706 0.0128712375 0.107566446
0.03424249 0.04133025 -0.001743133 -0.01553389 -0.039650228 -0.06671942 0.11856201 -0.020849137
-0.046489917 -0.055457685 -0.047957964 -0.08445026 0.006041359 0.07513345 0.0018339141 0.064340234
0.018341582 -0.14547345 0.0055594807 -0.03478855 -0.07366453 0.07373973 0.023163851 0.03335472
-0.06200938 0.09015155 -0.11043661 -0.08937092 0.016541503 -0.00048151618 -0.035619445 -0.028332531
-0.06613977 -0.13537435 0.0023140034 0.06215785 0.07441895 0.0039824806 0.034354888 0.055450834
0.007873142 -0.008089248 0.0015293657 0.03135593 0.0532585 0.08153788 -0.026397876 -0.09401971
0.07534075 -0.018859275 0.035324913 0.060555864 0.06822066 -0.05171123 -0.10529626 0.019354818
0.0727822 0.06913791 -0.03678584 0.034653045 0.09818411 0.028324474 0.12897806 -0.0007713375
0.025188493 0.04564419 -0.122064695 0.033951383 0.105442695 -0.061834473 -0.0077046454 -0.03267945
-0.042817194 0.031958092 0.08959317 -0.04882731 -0.05243528 0.006498194 0.08772856 0.05258821
0.027801603 -0.072142325 -0.016455604 0.02010193 0.0085048545 -0.022133937 -0.0078474255 0.02057155
-0.03692026 0.10272239 -0.026133057 -0.04187014 0.12402558 0.024248432 -0.0053192666 0.029289853
00000000: ef07 86bd a4d7 b53c 6042 fd3c 21b4 21be
00000010: 85d1 213d 7d17 6cbb 381e 84bd 3bde 1c3b
00000020: fc3e 0f3d b431 ea3c bf56 5b3d f052 e03d
00000030: 76a5 dfbd 2f6a 973d d62f 02be 1a85 063e
00000040: 177f 94bb cdad 863d 821b 35bd d5be a73d
00000050: 77ce 0abe 6add 94bb 7a44 803d d76c aa3d
00000060: b0a0 ee3c 3d74 fb3c 3c88 63be fbf6 03bd
00000070: d28c 1c3d 2815 223d c7dc 0c3e 2b6a 6ebd
00000080: 9da5 53bc 0d89 b8bd 7931 49bd 6a83 96bd
00000090: ef98 dc3d d1a4 24bd 7e5d debc fdfa 893a
000000a0: cf50 863d e34d 31bd 74e1 5f3d 0ce1 41bd
000000b0: d1fe 693b 56b0 d7bb 2b1d 9dbd ef78 3e3e
000000c0: 5924 e2ba 0c1f 5cbd 8dfa e5bd 05ea 6cbd
000000d0: fe41 3e3d 79fe c4bd 19c3 04bb 66d1 a1bd
000000e0: 696c e73c 1d67 00bd 09a5 c03d 872a e93d
000000f0: 7df5 70bd 65f7 293d 9d97 94bd c75a 043e
00000100: fb33 9d3d e8c1 cfbd 5101 0f3d 1439 7dbd
00000110: 6bff b5bd aba4 ac3d d223 47bd 9fba f7bb
00000120: 6735 323e 8e6a 3e3e a7dc 183e e8db 84bc
00000130: 5162 c4bd ba50 07be 9f91 68bd e7dd 1c3d
00000140: 852f 9c3a 8eb0 31bd deea 063d 8ec6 a33d
00000150: c730 b4bd 19cd 983c 8369 083d f031 973a
00000160: 3f3c 09be e594 8b3d 713f e33c bc47 6cb9
00000170: 3e3a 133e c12d 023d 6a5a 37bc 24ff 663d
00000180: e9e9 12bd 0b0c 6abd 4f10 1c3d 8187 efbd
00000190: 4e2d 693c eb37 60bd 8fbf 02bc 4060 9c3d
000001a0: 1812 00bd 1146 ae3c 4f60 dbbc 5434 d63c
000001b0: 1b9d 8a3c 1fea 24bd 07cb 8ebc ba5e 983d
000001c0: 4c52 9e3c ec10 06bd 0653 113d cc43 0f3c
000001d0: ef18 9c3d 8e87 4ebc 1183 e5bc 5663 b53d
000001e0: d92d 0e3d 1eaa 15bd 939b 9cbd f851 32bd
000001f0: ead7 f0bc 6477 b3bd 8592 313d cf0e bb3d
00000200: 7e06 28be b87c c43c f7f4 70bc 9d1f 26bd
00000210: bb7e 0dbd 8328 fabb e786 38bd 63f4 3cbd
00000220: 7cba 6ebd bdba afbd 50c2 2cbc 0065 53bd
00000230: 713c 093d 62f9 d63c b8a6 8a3d 2050 54bd
00000240: 9eea 833d 853f 4dbd 5aba 94bd 45fe 033d
00000250: 8431 c33c f52a 8a3d fbb5 a9bd b34f 2d3d
00000260: 4588 7a3c 0966 873d d886 1cbd 09e5 14bd
00000270: ed83 49bd bf0b 2d3b e2e1 523c cc4b dc3d
00000280: da41 0c3d e949 293d d679 e4ba db81 7ebc
00000290: 4768 22bd 31a4 88bd a4d0 f23d cfcb aabc
000002a0: 366c 3ebd 9927 63bd 926f 44bd 42f4 acbd
000002b0: 98f6 c53b 91df 993d f25f f03a d0c4 833d
000002c0: 1641 963c fef6 14be 4e2c b63b 707e 0ebd
000002d0: 6edd 96bd db04 973d 1ec2 bd3c f59e 083d
000002e0: 8cfd 7dbd 60a1 b83d 972c e2bd 1a08 b7bd
000002f0: 0c82 873c 0274 fcb9 b2e5 11bd a019 e8bc
00000300: 4a74 87bd 939f 0abe 89a6 173b 3b99 7e3d
00000310: f668 983d 787f 823b b6b7 0c3d 6a20 633d
00000320: 5afe 003c c488 04bc ff74 c83a 136f 003d
00000330: 9625 5a3d 55fd a63d 5c40 d8bc 688d c0bd
00000340: 404c 9a3d c47e 9abc dbb0 103d 6d09 783d
00000350: 46b7 8b3d 28cf 53bd 91a5 d7bd ff8d 9e3c
00000360: d60e 953d 2d98 8d3d c0ac 16bd 5af0 0d3d
00000370: c014 c93d ba08 e83c d312 043e 9533 4aba
00000380: 1958 ce3c 67f5 3a3d 0efd f9bd 9b10 0b3d
00000390: 57f2 d73d 2546 7dbd 4077 fcbb e3da 05bd
000003a0: 1561 2fbd 7de6 023d a07c b73d 25ff 47bd
000003b0: 60c6 56bd cdee d43b 08ab b33d bc66 573d
000003c0: 30c0 e33c 5bbf 93bd e7cd 86bc cdac a43c
000003d0: f257 0b3c 3b52 b5bc 7d92 00bc ab85 a83c
000003e0: b339 17bd 1e60 d23d fe14 d6bc 0680 2bbd
000003f0: 2001 fe3d a6a4 c63c 3e4d aebb 46f1 ef3c

fc2.bias f4 [96]
-0.09464296 0.042307336 0.07149849 -0.07362475 0.033226214 -0.05330833 0.05098322 -0.017863477
0.0673676 0.04548618 -0.06522764 0.012620857 0.056267098 0.06625599 0.038889997 0.08895471
0.017920356 0.07730475 -0.049929712 -0.015445115 -0.016192608 0.088143006 -0.03538783 0.14511453
0.095613584 0.025693413 0.10046412 -0.08493169 0.012777273 0.094449006 -0.06968141 -0.028714998
-0.08487635 0.06586134 0.00473135 -0.1456766 0.08320812 0.13547753 0.018573754 0.12166622
-0.11003545 0.0028540879 0.0009935824 0.025907924 0.022897828 -0.03658938 0.12760511 -0.020243298
0.022998834 0.055818565 -0.10165328 -0.22413309 -0.14609697 -0.03337931 -0.116948776 0.091173686
-0.02354978 -0.05696464 -0.051217083 0.03093772 -0.016889434 -0.07354116 -0.058226112 -0.065045275
-0.07424219 0.09571431 0.106026225 -0.03414179 -0.11237447 0.019121744 -0.026440801 0.053696413
-0.11220899 -0.061374534 -0.084918834 -0.037088197 0.033899143 0.10083742 0.09327762 -0.040364485
0.038709708 0.1425269 -0.053433765 -0.100932576 -0.06608862 -0.052345164 0.06719663 0.07935696
0.11823576 0.1047072 0.0130571425 -0.076280124 0.0028218229 0.0013992721 -0.04654104 -0.025594208
00000000: 2bd4 c1bd 754a 2d3d cd6d 923d 93c8 96bd
00000010: 3618 083d d659 5abd c8d3 503d 6d56 92bc
00000020: 06f8 893d b74f 3a3d 1296 85bd b6c7 4e3c
00000030: 5478 663d 38b1 873d 1e4b 1f3d e32d b63d
00000040: b6cd 923c f451 9e3d 1983 4cbd 820d 7dbc
00000050: 5ca6 84bc 5284 b43d d4f2 10bd e798 143e
00000060: 0ed1 c33d fe7a d23c 22c0 cd3d aaf0 adbd
00000070: c457 513c 7b6e c13d 21b5 8ebd b73b ebbc
00000080: a7d3 adbd 4fe2 863d 7109 9b3b 3f2c 15be
00000090: 0569 aa3d 9fba 0a3e fc27 983c 242c f93d
000000a0: 445a e1bd a60b 3b3b 183b 823a db3c d43c
000000b0: 3a94 bb3c bfde 15bd eaaa 023e 46d5 a5bc
000000c0: 0d68 bc3c 02a2 643d 982f d0bd 2583 65be
000000d0: 729a 15be beb8 08bd d782 efbd 45b9 ba3d
000000e0: 78eb c0bc c153 69bd 01c9 51bd 1a71 fd3c
000000f0: b65b 8abc bf9c 96bd 817e 6ebd 7536 85bd
00000100: 4a0c 98bd dd05 c43d 4724 d93d 43d8 0bbd
00000110: 9624 e6bd 34a5 9c3c 619a d8bc c5f0 5b3d
00000120: d4cd e5bd dd63 7bbd ede9 adbd cbe9 17bd
00000130: d4d9 0a3d d983 ce3d 5608 bf3d 3b55 25bd
00000140: 128e 1e3d 92f2 113e 5ddd 5abd bdb5 cebd
00000150: 7859 87bd e267 56bd 639e 893d e785 a23d
00000160: 9725 f23d ba70 d63d a0ed 553c c138 9cbd
00000170: 55ee 383b c867 b73a d1a1 3ebd f2aa d1bc

fc3.weight f4 [96, 96]
0.09019257 -0.042961072 -0.017011072 0.0076101315 0.0050022537 -0.024692899 -0.063082285 -0.00328633
0.10267886 0.008906208 -0.010339581 0.060317367 0.061288252 0.049102977 -0.029328946 0.056760736
-0.006646583 0.009556707 0.058770597 -0.06418407 -0.120034836 0.014249877 0.0073020873 -0.088075496
0.056061953 0.05224303 0.054531887 -0.112501994 -0.020187937 0.012909301 -0.026272055 -0.014258464
-0.04389637 0.044272188 -0.066763535 -0.14479567 -0.08292369 0.02954651 -0.020998606 -0.07845245
-0.052728124 0.048170663 -0.045087103 -0.07962652 0.026943566 -0.015056713 -0.04140909 -0.034622062
0.035787456 -0.006449636 0.057710785 0.05840118 0.04746468 -0.07824167 -0.031802792 0.037752874
0.044316992 -0.07550887 -0.031824753 -0.022444839 -0.03253324 0.056058668 0.109311536 -0.016381823
-0.0722215 0.09711193 -0.04026844 -0.05779205 -0.022100074 0.08013963 -0.064145505 -0.079988316
0.0876428 0.04736612 0.04844176 0.093140356 -0.013128881 -0.048910554 0.0037512633 0.037418857
-0.03678163 0.034667183 -0.030088248 0.03994141 0.012059575 0.10130041 -0.012905919 0.074883536
0.084301345 -7.115849e-05 -0.023919877 -0.063567966 -0.05346996 0.054642107 0.11982012 -0.07886189
0.039708473 -0.046346933 0.014507552 -0.06053805 0.045566175 -0.0024582148 -0.016902413 0.061410103
-0.047944788 -0.08396906 0.010773818 -0.078332715 -0.05672418 -0.073359326 -0.04274706 0.0007195578
0.034849424 -0.057150718 -0.0654236 -0.057691608 -0.0806031 0.043035574 -0.014243851 -0.06795864
0.0018662033 0.10157929 0.046970464 -0.051288072 -0.021007905 -0.028065426 0.09642789 0.019620664
-0.07715304 0.07325269 0.035327934 -0.06468969 -0.018097047 0.0060916306 0.08489249 -0.04510573
0.040950567 0.05282827 5.66671e-05 -0.079954356 0.07130962 0.1813847 -0.027228428 -0.07437508
-0.059090003 -0.103463374 -0.0036788876 0.046401136 -0.09898137 0.0064158794 -0.01640433 -0.009363094
0.036913272 0.0049136393 0.08074217 0.00047112917 -0.004877462 -0.090995446 -0.08793156 -0.04905309
0.026309516 0.04709284 0.037645318 0.021050075 -0.009593167 -0.04833182 0.080745 -0.062280882
-0.012511662 -0.07535121 0.07937628 0.087317586 -0.031811837 0.09102877 0.065868095 0.015154278
-0.0825522 -0.079876 -0.017121509 0.021648604 -0.057513274 0.051691588 0.07317865 0.0022459328
-0.08119839 -0.09135261 0.07273457 0.0076188515 -0.021447662 -0.06143674 -0.02101736 0.13229918
-0.02404851 0.030121952 0.02577187 0.0071377777 -0.014238991 0.04355053 -0.08383444 0.060100127
0.033719067 0.04029059 -0.07854574 0.04164763 -0.051133312 -0.01056556 0.02450061 -0.021522593
0.054919463 -0.024497928 -0.034412257 -0.013954154 -0.057404112 0.048415188 0.028647186 -0.011451086
-0.10721484 0.023050752 0.024578368 0.0026848316 0.059440136 -0.004901301 0.030088754 -0.010355676
0.05570749 0.025030633 -0.0032884113 -0.026442237 0.024274636 0.026979586 -0.03329711 0.01769254
0.054626647 0.0974887 0.05155953 0.018552288 0.025440244 0.038009148 0.06699048 -0.04573461
-0.05350215 -0.006813608 0.049803387 -0.0049588582 0.010011861 -0.099373214 -0.06249714 -0.061605345
0.01761596 -0.060187373 -0.016693398 -0.032682158 0.040282663 0.016334184 -0.070932135 0.010093144
00000000: e2b6 b83d f3f7 2fbd ce5a 8bbc 695e f93b
00000010: f2e9 a33b c348 cabc 4931 81bd 785f 57bb
00000020: 4b49 d23d 58eb 113c 5967 29bc 580f 773d
00000030: 6409 7b3d 3420 493d 4243 f0bc f27d 683d
00000040: 94cb d9bb bc93 1c3c 70b9 703d f072 83bd
00000050: d3d4 f5bd 5178 693c 5946 ef3b ed60 b4bd
00000060: 38a1 653d cafc 553d d45c 5f3d 7267 e6bd
00000070: 2c61 a5bc 8881 533c 7e38 d7bc 559c 69bc
00000080: aecc 33bd c156 353d 52bb 88bd 5145 14be
00000090: e5d3 a9bd 860b f23c 4505 acbc aeab a0bd
000000a0: 72f9 57bd 9a4e 453d 41ad 38bd 3b13 a3bd
000000b0: c1b8 dc3c 6eb0 76bc 949c 29bd ddcf 0dbd
000000c0: de95 123d 7857 d3bb 2562 6c3d 1336 6f3d
000000d0: 536a 423d 2b3d a0bd a543 02bd c2a2 1a3d
000000e0: bc85 353d 65a4 9abd ac5a 02bd 3dde b7bc
000000f0: 9341 05bd c69d 653d bade df3d 2c33 86bc
00000100: dee8 93bd 9fe2 c63d 85f0 24bd 5bb7 6cbd
00000110: 370b b5bc 3f20 a43d b85e 83bd ead0 a3bd
00000120: 117e b33d fa02 423d de6a 463d 5fc0 be3d
00000130: 851a 57bc 6f56 48bd c1d7 753b 8444 193d
00000140: 56a8 16bd 2dff 0d3d a17b f6bc 9b99 233d
00000150: 8695 453c 9776 cf3d 5973 53bc 8a5c 993d
00000160: 2fa6 ac3d ec3a 95b8 9ef3 c3bc ec2f 82bd
00000170: 5103 5bbd 67d0 5f3d 4064 f53d 5882 a1bd
00000180: 5aa5 223d 48d6 3dbd 15b1 6d3c bff6 77bd
00000190: 99a3 3a3d 001a 21bb ee76 8abc 2989 7b3d
000001a0: c161 44bd f8f7 abbd ab84 303c e76c a0bd
000001b0: 9d57 68bd 6a3d 96bd 8b17 2fbd b5a0 3c3a
000001c0: 45be 0e3d df16 6abd cffc 85bd 094e 6cbd
000001d0: 3d13 a5bd 1246 303d 0b5f 69bc e62d 8bbd
000001e0: 649b f43a ce08 d03d 1a64 403d 7113 52bd
000001f0: c518 acbc 77e9 e5bc fc7b c53d 84bb a03c
00000200: 6a02 9ebd 8205 963d 06b4 103d 077c 84bd
00000210: 4240 94bc 4d9c c73b 1ddc ad3d c9c0 38bd
00000220: c8bb 273d 7562 583d d6ad 6d38 1cbf a3bd
00000230: c70a 923d e9bc 393e 270e dfbc f651 98bd
00000240: 5c08 72bd 9be4 d3bd 7e19 71bb 1e0f 3e3d
00000250: bfb6 cabd 4c3c d23b 6062 86bc aa67 19bc
00000260: 5f32 173d 9802 a13b 275c a53d e301 f739
00000270: 1ed3 9fbb d25b babd 7615 b4bd e5eb 48bd
00000280: 0e87 d73c 6ce4 403d fa31 1a3d 3571 ac3c
00000290: a92c 1dbc 96f7 45bd a25d a53d 3d1a 7fbd
000002a0: b7fd 4cbc bc51 9abd 0890 a23d 90d3 b23d
000002b0: 214d 02bd 4b6d ba3d dae5 863d a649 783c
000002c0: 2111 a9bd 0796 a3bd 6842 8cbc 6a58 b13c
000002d0: 0a93 6bbd 8fba 533d b0de 953d 8030 133b
000002e0: 574b a6bd 1417 bbbd ddf5 943d 8fa7 f93b
000002f0: 02b3 afbc 17a5 7bbd 992c acbc 7079 073e
00000300: 6101 c5bc 50c2 f63c 871f d33c 05e4 e93b
00000310: a84a 69bc 0a62 323d 64b1 abbd 8d2b 763d
00000320: 011d 0a3d bf07 253d 97dc a0bd b596 2a3d
00000330: 2a71 51bd 2c1b 2dbc 81b5 c83c 2650 b0bc
00000340: 3bf3 603d e1af c8bc def3 0cbd f79f 64bc
00000350: 9320 6bbd 014f 463d 81ad ea3c 569d 3bbc
00000360: 7493 dbbd eed4 bc3c 9358 c93c 00f4 2f3b
00000370: 8077 733d 189b a0bb b17c f63c daaa 29bc
00000380: 892d 643d 0b0d cd3c 6382 57bb 649d d8bc
00000390: 9adb c63c 4b04 dd3c 8d62 08bd f2ef 903c
000003a0: 31c0 5f3d 28a8 c73d 1630 533d f8fa 973c
000003b0: 0f68 d03c 7baf 1b3d 4e32 893d 3754 3bbd
000003c0: 1225 5bbd b044 dfbb a3fe 4b3d eb7d a2bb
000003d0: ca08 243c 2f84 cbbd 00fd 7fbd e355 7cbd
000003e0: 594f 903c 0987 76bd 98c0 88bc badd 05bd
000003f0: 6fff 243d 44cf 853c de44 91bd b75d 253c

fc3.bias f4 [96]
-0.019541143 -0.20349216 0.022993473 0.16960998 -0.22014885 0.032139346 -0.04800128 0.095348865
-0.009871444 0.12392008 0.029293787 -0.15862896 -0.11382851 0.10087755 0.1521869 -0.116612166
0.14541818 -0.22343397 -0.23428017 -0.21048893 0.28844297 -0.092618555 0.14341778 -0.09941335
0.21852104 0.03041024 -0.0768663 0.113471225 0.19945146 0.0602311 0.20896274 -0.08642212
0.064117454 0.094952285 -0.13526681 0.12969084 0.08931695 0.09403445 -0.055345174 -0.06475634
0.08913971 -0.11300438 0.13735892 0.11996546 0.073737666 0.0014608004 0.17952123 0.17669745
0.040400866 0.27343667 0.14099546 0.17935611 0.2560587 -0.069821075 -0.05747924 -0.1095628
0.13943891 -0.10367634 -0.14890006 0.110675074 0.23229648 -0.13177061 0.24035898 0.08588999
-0.0922865 0.06996938 0.02939728 -0.23609693 -0.090849064 0.12196949 -0.14902073 -0.07856919
-0.09219309 -0.17912984 -0.039887633 -6.1776474e-05 -0.08139825 0.13186103 -0.15751639 0.20936063
-0.1484606 -0.13855308 -0.098148234 0.053649504 -0.09559994 0.15873685 -0.048608955 0.031733338
0.12600115 -0.14862435 -0.16999987 -0.19689432 -0.11909755 0.013570433 0.13984206 0.115256175
00000000: bf14 a0bc 4060 50be cf5c bc3c 3dae 2d3e
00000010: b36e 61be 8ca4 033d fd9c 44bd 4446 c33d
00000020: d6bb 21bc d0c9 fd3d 86f9 ef3c a16f 22be
00000030: ec1e e9bd e498 ce3d e2d6 1b3e 5cd2 eebd
00000040: 81e8 143e e0cb 64be 24e7 6fbe 698a 57be
00000050: ccae 933e ccae bdbd 1cdc 123e 3a99 cbbd
00000060: fbc3 5f3e e51e f93c 146c 9dbd 9a63 e83d
00000070: 013d 4c3e e3b4 763d 54fa 553e 15fe b0bd
00000080: 0350 833d 5876 c23d 6283 0abe adcd 043e
00000090: ceeb b63d 2295 c03d 9fb1 62bd f99e 84bd
000000a0: e18e b63d d76e e7bd d1a7 0c3e 73b0 f53d
000000b0: c603 973d 5478 bf3a 6ad4 373e 2df0 343e
000000c0: 617b 253d e4ff 8b3e 1d61 103e 21a9 373e
000000d0: 201a 833e 5afe 8ebd 5a6f 6bbd 7662 e0bd
000000e0: 13c9 0e3e 4354 d4bd 4279 18be 9da9 e23d
000000f0: 21df 6d3e e0ee 06be aa20 763e 17e7 af3d
00000100: b400 bdbd 1b4c 8f3d 91d2 f03c 65c3 71be
00000110: 130f babd 24cb f93d e498 18be e2e8 a0bd
00000120: bbcf bcbd d06d 37be 3761 23bd fe8d 81b8
00000130: 20b4 a6bd 9406 073e fa4b 21be a262 563e
00000140: 0e06 18be dce0 0dbe f101 c9bd 95bf 5b3d
00000150: e7c9 c3bd ea8b 223e 2f1a 47bd d1fa 013d
00000160: 7206 013e fb30 18be 7214 2ebe aa9e 49be
00000170: 6be9 f3bd 8556 5e3c c232 0f3e 6e0b ec3d

fc4.weight f4 [4, 96]
-0.0032961604 -0.09202655 -0.00038347422 -0.0027460873 -0.107803166 0.0021225275 -0.0012634274 0.034867916
-0.033046383 -0.0133289965 0.0022325264 -0.11459575 -0.08373794 0.00025962436 0.15098235 0.045549277
0.008187811 0.016491711 -0.04069415 -0.09604446 0.14723635 0.0010140985 -0.00045901537 -0.0014129491
0.18195732 0.0016194946 0.00393177 -9.3328534e-05 0.076391526 -0.006967228 0.10503589 -0.0020319559
0.00090563385 0.0163284 -0.000625389 0.102744706 0.0007469414 0.0024043843 0.002397648 -0.001235148
-0.0003765381 -0.0015212789 0.021396771 -0.03547327 -0.0021454394 0.003918206 -0.004374835 0.019589545
-0.06921311 0.13306442 0.0004471206 0.07254049 0.05902495 0.1421304 0.0012210022 0.0013975404
0.08065157 -0.106814705 -0.037739262 0.000312343 0.018142594 0.00070330343 0.0673047 -0.0016569636
0.0004977922 0.11395523 0.00042810832 -0.04524114 0.001430219 0.0017166327 -0.08984026 -0.049177643
0.00064652134 -0.15506056 -0.00013797935 -0.0012900608 -0.008141033 0.002869113 0.0030409407 0.044439603
-0.031185007 -0.034636986 -0.0773466 0.00077836995 -0.01569437 0.016457593 -0.00032665828 0.059357982
-0.0001841538 -0.09927873 -0.10428808 -0.11061419 0.0081358 0.028057044 0.0008127114 0.045381214
-0.007859479 -0.10570362 0.0019121818 0.026588148 -0.09130541 0.013542586 -0.014542547 0.04678155
0.020744435 0.019617021 0.009065639 -0.05708331 -0.038000345 -0.010577166 0.05837641 -0.013003542
0.057656437 -0.04490153 -0.060259387 -0.11941983 0.10462777 -0.029537627 0.0058770226 -0.026731525
0.14703862 0.00079987873 -0.0014407538 0.006257059 0.07454782 -0.043366548 0.09708999 -0.0014615264
-0.049479954 0.03233517 -0.010992706 0.08098125 0.008190366 0.0011460537 -0.00010901678 -0.0065192054
0.03240914 -0.034485377 0.04518428 -0.0011432967 0.002849238 0.014469817 0.057822358 0.056365255
-0.003542729 0.17251101 0.024684323 0.042809524 0.13084623 0.08531671 0.005052915 0.0013144426
0.050069246 -0.013871347 -0.031407647 -0.0039112503 0.11385816 0.0065653995 0.1495478 0.009737346
-0.014617025 0.013441874 -0.012551622 -0.10158459 0.01271962 0.016213529 -0.06414452 0.01966021
0.003839198 -0.10749102 0.007852454 -0.0011581432 -0.004141314 -0.00069247215 -0.027944997 0.10332028
-0.04217603 -0.07983706 -0.04752178 -0.010027209 -0.03365234 0.005259923 -0.011015763 -0.016175041
-0.00014038592 -0.023237454 -0.05288995 -0.04412287 0.0019425607 0.0290106 0.03049114 0.04996166
0.0029305243 -0.027671797 0.0009392293 0.004065621 -0.11545306 -0.0042648464 0.0007814819 0.058125377
-0.028155351 -0.020478835 -0.0028306197 -0.014672057 -0.06354049 -9.611108e-05 -0.011582136 -0.034813117
0.031283837 -0.06392406 -0.16505797 -0.1179874 0.17244999 0.0037339095 -0.002381945 0.002220243
0.066475935 -0.0008826435 -0.0022087304 -0.000103454644 0.07889414 0.025128948 0.08169511 -0.0001998035
0.05866709 0.018750023 -0.063487604 0.044121645 -0.00012378191 -0.008309669 -0.0013673004 -0.0003708919
-0.0152883865 -0.004999583 0.080639124 0.09829731 -0.0010397515 -0.001210312 0.086629994 0.020742191
0.020933023 0.10350179 0.0034077999 0.084727645 0.12445559 -0.06536776 -0.0012332136 0.00018157311
0.071388364 -0.09625054 -0.136758 0.0013470025 0.0014344031 -0.0037007588 0.0020621067 0.0017445718
00000000: 6504 58bb 6a78 bcbd 0a0d c9b9 b3f7 33bb
00000010: e8c7 dcbd 1a1a 0b3b 9799 a5ba a9d1 0e3d
00000020: a55b 07bd dd61 5abc 944f 123b 2db1 eabd
00000030: cc7e abbd 311e 8839 1e9b 1a3e e191 3a3d
00000040: 2b26 063c a019 873c e9ae 26bd f5b2 c4bd
00000050: 20c5 163e 80eb 843a 00a8 f0b9 b432 b9ba
00000060: 0553 3a3e 3945 d43a 14d6 803b 60b9 c3b8
00000070: 2973 9c3d 584d e4bb 0f1d d73d 902a 05bb
00000080: 0f68 6d3a 23c3 853c 25f1 23ba d16b d23d
00000090: 64ce 433a e092 1d3b dc21 1d3b b1e4 a1ba
000000a0: 176a c5b9 a665 c7ba 4848 af3c 6b4c 11bd
000000b0: 809a 0cbb 4b64 803b c75a 8fbb 417a a03c
000000c0: 9abf 8dbd 0a42 083e 836b ea39 1c90 943d
000000d0: 25c4 713d a28a 113e 090a a03a ad2d b73a
000000e0: a62c a53d abc1 dabd 7c94 1abd f8c1 a339
000000f0: c79f 943c e55d 383a 0cd7 893d 792e d9ba
00000100: 457e 023a 5c61 e93d ba73 e039 c64e 39bd
00000110: 3076 bb3a a300 e13a 2cfe b7bd 7f6e 49bd
00000120: 507b 293a 32c8 1ebe 8dae 10b9 4217 a9ba
00000130: f861 05bc bb07 3c3b 854a 473b 4d06 363d
00000140: b377 ffbc 83df 0dbd e567 9ebd 860b 4c3a
00000150: 7b91 80bc 13d2 863c 5543 abb9 5b21 733d
00000160: 6919 41b9 a652 cbbd fd94 d5bd b189 e2bd
00000170: 054c 053c e3d7 e53c 240c 553a a7e1 393d
00000180: 0bc5 00bc 247b d8bd 2da2 fa3a 63cf d93c
00000190: 55fe babd b9e1 5d3c dd43 6ebc 039e 3f3d
000001a0: 3cf0 a93c e0b3 a03c 0c88 143c 30d0 69bd
000001b0: 40a6 1bbd da4b 2dbc 1a1c 6f3d cf0c 55bc
000001c0: 2829 6c3d abea 37bd 8cd2 76bd 6292 f4bd
000001d0: 1647 d63d e5f8 f1bc 0a94 c03b 12fc dabc
000001e0: 4b91 163e f4ae 513a add7 bcba 0408 cd3b
000001f0: 87ac 983d 1fa1 31bd 1ed7 c63d b090 bfba
00000200: 7eab 4abd e271 043d c01a 34bc 7fd9 a53d
00000210: e330 063c 2e37 963a f09f e4b8 0f9f d5bb
00000220: 72bf 043d 8a40 0dbd 2713 393d acda 95ba
00000230: 48ba 3a3b d012 6d3c 23d7 6c3d 41df 663d
00000240: 212d 68bb baa6 303e c736 ca3c 0a59 2f3d
00000250: 8efc 053e 87ba ae3d ec92 a53b 6049 ac3a
00000260: 6915 4d3d a544 63bc 4ea5 00bd f229 80bb
00000270: 782e e93d 9022 d73b 0f23 193e 6489 1f3c
00000280: 3f7c 6fbc 4e3b 5c3c 52a5 4dbc 950b d0bd
00000290: f465 503c 3cd2 843c 345e 83bd 730e a13c
000002a0: 0e9b 7b3b 4024 dcbd 94a7 003c d6cc 97ba
000002b0: dcb3 87bb 0587 35ba e8ec e4bc 9599 d33d
000002c0: c6c0 2cbd 9d81 a3bd 33a6 42bd 2a49 24bc
000002d0: 09d7 09bd 6f5b ac3b 757b 34bc 8581 84bc
000002e0: 8f34 13b9 795c bebc 22a3 58bd 2fba 34bd
000002f0: 859d fe3a a3a7 ed3c 8ec8 f93c 99a4 4c3d
00000300: 0a0e 403b f7af e2bc 9d36 763a e738 853b
00000310: a772 ecbd 20c0 8bbb 5ddc 4c3a e014 6e3d
00000320: 0da6 e6bc 3bc3 a7bc eb81 39bb 1163 70bc
00000330: 8421 82bd 3e8f c9b8 00c3 3dbc 3398 0ebd
00000340: 7b23 003d 9eea 82bd f504 29be 61a3 f1bd
00000350: bb96 303e 9bb4 743b 681a 1cbb 7f81 113b
00000360: 8924 883d 3461 67ba 59c0 10bb caf5 d8b8
00000370: 4093 a13d 39db cd3c c44f a73d 5882 51b9
00000380: e74c 703d a699 993c ca05 82bd e6b8 343d
00000390: 74cb 01b9 4725 08bc fd36 b3ba 4574 c2b9
000003a0: 247c 7abc 8bd3 a3bb 2026 a53d 1a50 c93d
000003b0: 4548 88ba 55a3 9eba 116b b13d 87eb a93c
000003c0: bb7b ab3c bff8 d33d 6555 5f3b b085 ad3d
000003d0: 93e2 fe3d 88df 85bd c8a3 a1ba a964 3e39
000003e0: 1034 923d 011f c5bd 4a0a 0cbe e78d b03a
000003f0: 9502 bc3a 6e88 72bb 6924 073b 1eaa e43a

fc4.bias f4 [4]
0.15793265 0.182015 0.063209996 0.061804365
00000000: 19b9 213e 2462 3a3e 3e74 813d 9326 7d3d
