recent_checkpoint.pth (torch_old, 91850 bytes, 8 tensors)

fc1.weight f4 [96, 37]
0	0x3d2f8647	0.042852666
1	0x3da7c210	0.08191311
2	0xbdc1f0a0	-0.09469724
3	0xbe1f12bf	-0.15534495
4	0xbdb5f98b	-0.08885487
5	0x3dd34c6c	0.10317311
6	0x3d5b057d	0.05347203
7	0x3d4ffa98	0.050776094
8	0xbda19715	-0.07890145
9	0xbef82977	-0.48469135
10	0xbd82c636	-0.06385462
11	0xbcab5317	-0.020913644
12	0xbd9cce5c	-0.076565474
13	0xbdc14705	-0.09437374
14	0x3bc08a1d	0.0058758394
15	0x3e477a1a	0.19480172
16	0xbde27143	-0.11056759
17	0x3cf8424e	0.030305054
18	0xbdc90503	-0.09815409
19	0xbeecb652	-0.4623285
20	0x3d8ec0b2	0.069703475
21	0x3df0a26b	0.11749729
22	0x3d420850	0.04737121
23	0x3e2dd41a	0.16975442
24	0x3d43356d	0.047658373
25	0xbac65ca0	-0.0015133806
26	0x3ed3ce58	0.41368365
27	0xbe238a7b	-0.15970795
28	0xbe61dc72	-0.2205675
29	0xbedcb771	-0.43108705
30	0xbd9e1304	-0.07718471
31	0x3e3fc0ad	0.18725844
32	0xbd8a930f	-0.067663305
33	0xbc5e2e79	-0.013560885
34	0xbe30fe97	-0.17284618
35	0xbe4c39cf	-0.19943927
36	0xbc660628	-0.014039554
37	0x3d22a880	0.039711475
38	0x3d82adf7	0.063808374
39	0x3dcb5dc6	0.09929995
40	0x3de1472a	0.109999016
41	0xbd9637b5	-0.07334844
42	0x3dee7f0e	0.116453275
43	0xbe70df45	-0.2352267
44	0xbe18e527	-0.14931165
45	0xbe822f35	-0.2542664
46	0xbf2c5c2b	-0.6732814
47	0x3c8c8a33	0.017155742
48	0xbd0121cf	-0.031526383
49	0x3d866879	0.06562895
50	0x3d4a801c	0.04943858
51	0x3e1b0233	0.15137558
52	0xbcb48ba3	-0.02203924
53	0x3d48b88e	0.04900413
54	0x3dadb5fe	0.08481978
55	0x3c819e18	0.015822455
56	0x3e288545	0.16457088
57	0xbe561243	-0.20905404
58	0xbe034521	-0.1281934
59	0xbca310ef	-0.019905536
60	0x3dfc10d8	0.123079
61	0x3ebc9514	0.36832488
62	0xbe010ffc	-0.12603754
63	0x3d3b21d3	0.045686554
64	0x3dcc8a07	0.09987264
65	0x3c11c33f	0.008896648
66	0x3e5d17b1	0.21591069
67	0x3d94b139	0.07260365
68	0x3cea0d08	0.028570667
69	0x3df78e69	0.120877095
70	0xbd90a570	-0.07062805
71	0x3df51651	0.11967147
72	0x3c358746	0.011079615
73	0xbc20094e	-0.009767843
74	0x3e0588cd	0.13040467
75	0x3dbaa521	0.09113527
76	0x3d9a2f7b	0.075285874
77	0xbea89d57	-0.3293254
78	0xbd1dc5b1	-0.03851861
79	0xbe8a33aa	-0.26992542
80	0xbe241939	-0.16025247
81	0x3e98850b	0.29789004
82	0xbdae1fd9	-0.08502168
83	0xbec0756c	-0.37589586
84	0xbc6936ef	-0.014234289
85	0xbdb395d2	-0.0876881
86	0xbd439e41	-0.047758345
87	0x3cd7c903	0.026340967
88	0x3dfd982d	0.12382541
89	0xbcba4591	-0.02273825
90	0xbde68944	-0.1125665
91	0x3e243f12	0.16039684
92	0xbd8a07df	-0.067397825
93	0xbe9c82fa	-0.30568677
94	0xbe8ec7df	-0.27886865
95	0xbe0ebf50	-0.13940167
96	0x3e189892	0.14901951
97	0x3d8854d8	0.06656808
98	0xbdb71c7f	-0.08940982
99	0xbeb9e1bd	-0.36305037
100	0x3e5fa13e	0.21838853
101	0x3e7466e7	0.23867379
102	0xbe903a46	-0.2816946
103	0xbf1d5702	-0.6146089
104	0xbdb332e6	-0.087499425
105	0xbe693087	-0.22772418
106	0xbd9708a6	-0.073746964
107	0xbe2ea1cf	-0.17053913
108	0x3e8dab74	0.2766987
109	0x3cf10d4c	0.029425286
110	0xbca0612d	-0.019577587
111	0x3c9121e5	0.017716357
112	0xbd4277b2	-0.04747743
113	0x3d9154e1	0.070962675
114	0x3d6ba9c4	0.057534948
115	0xbe0f0a5c	-0.13968796
116	0xbdf61450	-0.12015593
117	0xbd49b455	-0.049244244
118	0x3d6f6cd6	0.058453403
119	0x3ccbab13	0.024861848
120	0xbb42ea01	-0.0029741528
121	0x3df66129	0.120302506
122	0xbe16b29d	-0.14716573
123	0xbe124526	-0.1428419
124	0xbe3e2ce2	-0.18571809
125	0xbef58939	-0.47956255
126	0xbdf7e5ed	-0.12104402
127	0xbdc70d30	-0.09719312
128	0xbda0c72e	-0.078504905
129	0xbe115668	-0.14193118
130	0xbc6e8530	-0.014558122
131	0x3e8dbe38	0.27684188
132	0xbf3a3c38	-0.72748137
133	0xbe758e95	-0.23980172
134	0xbd0fdbfd	-0.035121907
135	0xbf99ee1a	-1.2025788
136	0xbe10168d	-0.14071102
137	0xbceec3d7	-0.029146118
138	0x3d9fa10d	0.0779439
139	0x3da2e1fb	0.079532586
140	0x3e2a7151	0.1664479
141	0x3d86985c	0.06572029
142	0x3e3cc8b0	0.18435931
143	0xbd86124e	-0.0654646
144	0xbe8030ab	-0.2503713
145	0xbe71f836	-0.23629841
146	0x3dc63204	0.096775085
147	0xbd2da16e	-0.04239028
148	0xbde67d29	-0.11254341
149	0xbdcf45ef	-0.10120761
150	0xbdc985e5	-0.098399915
151	0xbe052405	-0.13002022
152	0x3bae57c4	0.005320521
153	0x3e15a0d1	0.14612128
154	0x3e0aeafd	0.13566203
155	0xbdfdebeb	-0.123985134
156	0xbde8e920	-0.1137259
157	0xbec0a74e	-0.37627643
158	0xbd20bf8c	-0.039245173
159	0xbd75e212	-0.06003005
160	0x3c8419c7	0.016125573
161	0xbd37563a	-0.044759966
162	0xbe1dbc7b	-0.15403931
163	0xbdd660dc	-0.10467693
164	0xbcfc2fa1	-0.03078443
165	0xbca36015	-0.019943276
166	0xbce2f217	-0.027703328
167	0x3b4b9441	0.0031063708
168	0xbe53b24a	-0.2067348
169	0x3e0dbcb7	0.1384152
170	0x3e255a76	0.1614779
171	0x3d8b58ad	0.06804023
172	0x3f574d31	0.8410216
173	0x3dfe1bf1	0.12407673
174	0xbe00a5f9	-0.12563314
175	0x3d8a4362	0.067511335
176	0xbca5d3fb	-0.020242682
177	0xbd4fc24d	-0.05072241
178	0x3e6d73d7	0.2318872
179	0xbeacaa83	-0.3372384
180	0x3cca4de2	0.02469534
181	0x3d99cf89	0.07510287
182	0x3eda0fc6	0.4259016
183	0xbc2303d7	-0.009949646
184	0xbc2b782f	-0.010465666
185	0x3d2d2a93	0.04227693
186	0xbdb22ebb	-0.087003194
187	0xbda93937	-0.08262866
188	0xbdeff8c6	-0.11717372
189	0x3be7f568	0.0070788153
190	0x3e49b5c7	0.19698249
191	0xbd3b3878	-0.04570815
192	0xbe9f5f87	-0.3112757
193	0xbe4f34a9	-0.20234932
194	0xbf4f175e	-0.8089503
195	0xbdde5d26	-0.108576104
196	0xbe043648	-0.12911332
197	0x3c8b2bf1	0.016988726
198	0xbe1cd451	-0.15315367
199	0xbc2babb4	-0.010477949
200	0xbb67e566	-0.0035384535
201	0x3dde39e2	0.10850884
202	0xbe5e88bc	-0.21731848
203	0xbe02e1f7	-0.12781511
204	0xbdef23f4	-0.116767794
205	0x3d71e6aa	0.05905787
206	0xbc126898	-0.00893607
207	0x3d322a4f	0.04349738
208	0x3d14bdd9	0.036313865
209	0x3d34b16f	0.044114526
210	0x3c638585	0.013886814
211	0xbd6a8a46	-0.057260774
212	0xbc41f2b9	-0.011837655
213	0xbe3236fe	-0.1740379
214	0x3bdc5582	0.0067240605
215	0xbdd514e5	-0.10404376
216	0xbdd7680c	-0.10517892
217	0xbb1e38ae	-0.002414267
218	0x3de7e312	0.11322607
219	0xbd4bf14c	-0.049790666
220	0xbd947973	-0.07249727
221	0x3d331df1	0.043729726
222	0x3d2d8185	0.042359848
223	0xbd4cff52	-0.05004818
224	0xbd915493	-0.070962094
225	0x3dbbade0	0.091640234
226	0xbdd725df	-0.1050527
227	0xbe1b1f21	-0.15148593
228	0xbc907c10	-0.017637283
229	0x3e1a900b	0.1509401
230	0x3e22f60e	0.15914175
231	0x3f4239b7	0.75869316
232	0xbc069947	-0.008215255
233	0x3e258963	0.1616569
234	0x3dee5e91	0.11639131
235	0xbdb8b9bd	-0.09019802
236	0xbc585823	-0.013204607
237	0xbdac0e28	-0.084011376
238	0xbdaffa38	-0.08592647
239	0x3d226bf2	0.039653726
240	0x3d34dbed	0.04415505
241	0xbcefbe93	-0.029265678
242	0xbdd9a511	-0.10627187
243	0x3d64c51f	0.05585205
244	0x3dd355b0	0.10319078
245	0xbde56e29	-0.11202652
246	0x3e1ffaea	0.1562306
247	0xbda6403d	-0.08117721
248	0x3ad1ada2	0.0015997181
249	0xbd843ea4	-0.0645726
250	0xbdf89480	-0.12137699
251	0xbe115722	-0.14193395
252	0x3e34c911	0.17654826
253	0xbdae1eb9	-0.08501954
254	0xbd9e7aa3	-0.07738235
255	0xbda07a67	-0.078358464

fc1.bias f4 [96]
0	0x3d4e0fe4	0.050308123
1	0xbcefa335	-0.029252628
2	0xbe1f5829	-0.15560974
3	0xbdc084c6	-0.094003245
4	0x3e383cb9	0.17991914
5	0xbe38ddad	-0.18053313
6	0xbdc2609f	-0.09491085
7	0xbdb777b7	-0.08958381
8	0x3d6c0f6d	0.0576319
9	0xbe3fb91c	-0.18722957
10	0xbd1b9034	-0.03797932
11	0x3dc722da	0.09723444
12	0x3dbc520c	0.09195337
13	0x3dafdfe3	0.08587625
14	0xbbd054e1	-0.0063577746
15	0xbe60c041	-0.21948339
16	0xbd44e8b1	-0.048073474
17	0xbe256e82	-0.16155437
18	0xbe032026	-0.12805232
19	0x3d4dd588	0.050252467
20	0xbcb034dd	-0.021509582
21	0x3e6bdb7b	0.23032944
22	0xbe09598d	-0.13413067
23	0xbdab66af	-0.08369195
24	0x3e7dc72b	0.24783008
25	0xbdfd6001	-0.12371827
26	0x3df76d85	0.12081436
27	0x3d7d25c9	0.061803613
28	0xbe09a15f	-0.13440464
29	0x3dcb1f24	0.09918049
30	0xbdb421fd	-0.08795545
31	0xbdee57ea	-0.11637862
32	0xbe0471b6	-0.12934002
33	0xbdacb90f	-0.084337346
34	0x3d3d4940	0.046212435
35	0xbe0d8be7	-0.138229
36	0x3d7633fd	0.060108174
37	0xbd096fb3	-0.03355379
38	0x3dabcd68	0.083887875
39	0x3ba6c5ca	0.0050894963
40	0x3d98dc4a	0.07463892
41	0xbd6d900b	-0.0579987
42	0x3d6cf9dc	0.057855472
43	0xbd43d5a2	-0.047811158
44	0xbdaf4ef8	-0.08559984
45	0x3da04716	0.078260586
46	0xbdf61424	-0.1201556
47	0xbe3427f2	-0.17593363
48	0xbe398956	-0.18118796
49	0xbdf889ce	-0.12135659
50	0xbddea34c	-0.1087099
51	0x3db805c1	0.089854725
52	0x3d858b6c	0.06520733
53	0x3c2e2a5c	0.010630216
54	0x3de009e5	0.10939387
55	0x3c9d923b	0.019234767
56	0xbe27d685	-0.16390426
57	0xbbfc26cf	-0.007695056
58	0xbd447245	-0.04796054
59	0xbde594cc	-0.112100214
60	0x3c9f555c	0.019449882
61	0xbd7105da	-0.05884347
62	0xbdda7501	-0.10666848
63	0x3c0ff1a7	0.008785642
64	0xbdd9a870	-0.1062783
65	0x3e222291	0.15833499
66	0x3c517d7e	0.012786267
67	0x3e25cdf7	0.1619185
68	0x3cdd22ff	0.026994227
69	0x3d6d3dc9	0.05792025
70	0xbd022ec8	-0.031782895
71	0xbe04b8c6	-0.1296111
72	0x3d5a66fb	0.053320866
73	0xbe01fe91	-0.12694766
74	0xbda0af13	-0.07845893
75	0xbdb8cce2	-0.09023453
76	0xbe3676cf	-0.1781876
77	0xbd222444	-0.039585367
78	0xbbccc16c	-0.0062486436
79	0xbc77ced4	-0.015124995
80	0x3e63dc7f	0.22252081
81	0x3d0a6125	0.03378405
82	0xbdb1c338	-0.08679813
83	0xbd46c435	-0.04852696
84	0xbd9d68de	-0.076860175
85	0xbdcb682b	-0.09931978
86	0xbd1faba5	-0.038982052
87	0xbc3fe1a6	-0.011711514
88	0xbd57d794	-0.052695826
89	0xbd3be84a	-0.045875825
90	0xbb00d5b7	-0.0019658634
91	0x3e47ef2f	0.19524835
92	0x3dbce4af	0.092233054
93	0xbe0b83ad	-0.13624449
94	0x3debf778	0.1152181
95	0xbdb0db48	-0.086355746

fc2.weight f4 [96, 96]
0	0xbd8a8345	-0.06763319
1	0x3c9f2d22	0.0194307
2	0x3cf8f421	0.030389847
3	0xbe2415f9	-0.16024007
4	0x3d1993fb	0.03749464
5	0xbb77da2c	-0.003781925
6	0xbd7b340d	-0.061328936
7	0xba9c49b3	-0.001192382
8	0x3d18f5e5	0.03734388
9	0x3ceaa7e2	0.028644506
10	0x3d68c21f	0.056825753
11	0x3ddbe5e5	0.10737208
12	0xbddada2c	-0.10686144
13	0x3d9398f2	0.072069064
14	0xbe05059f	-0.12990426
15	0x3e09086a	0.13382116
16	0xbbf68738	-0.0075234435
17	0x3d8baf06	0.068204924
18	0xbd2c9ef6	-0.042143784
19	0x3da314a2	0.0796292
20	0xbe0b5e03	-0.13610081
21	0xbb8147bf	-0.0039453204
22	0x3d81db9d	0.06340716
23	0x3da5bbba	0.080924466
24	0x3d0174d8	0.03160557
25	0x3cea5ccd	0.028608704
26	0xbe630c41	-0.22172643
27	0xbd0dccb9	-0.034619067
28	0x3d23d4fe	0.039998047
29	0x3d24782c	0.040153667
30	0x3e0c5b51	0.1370671
31	0xbd743eb6	-0.05963012
32	0xbc2c8e5f	-0.010531991
33	0xbdaf0baa	-0.085471466
34	0xbd494f82	-0.04914809
35	0xbd8f6b2c	-0.07002863
36	0x3de37e31	0.111080535
37	0xbd2add6e	-0.041715078
38	0xbcd555e9	-0.026041942
39	0x3a58f97a	0.0008276921
40	0x3d85c389	0.06531436
41	0xbd304dcd	-0.043042947
42	0x3d567b67	0.05236378
43	0xbd357cb0	-0.044308364
44	0x3baa218e	0.0051919883
45	0xbc1c4bde	-0.0095395725
46	0xbd968a49	-0.073505946
47	0x3e3e255f	0.18568943
48	0x3aa6848b	0.0012704296
49	0xbd635b1a	-0.055506803
50	0xbde57b28	-0.11205131
51	0xbd79d0e1	-0.060990218
52	0x3d376d58	0.044782013
53	0xbdc15fe2	-0.09442116
54	0xbb2e401b	-0.0026588503
55	0xbd9d5bba	-0.07683511
56	0x3ce8aed6	0.02840368
57	0xbd080a2c	-0.033212826
58	0x3dc336c7	0.09531932
59	0x3ddd341f	0.10800957
60	0xbd74b93c	-0.059746966
61	0x3d31de54	0.04342492
62	0xbd91dfa0	-0.07122731
63	0x3e06e17b	0.13171951
64	0x3d9d00a3	0.07666137
65	0xbdcf3f0e	-0.101194486
66	0x3d05740d	0.032581378
67	0xbd6afffb	-0.05737303
68	0xbdbaded2	-0.09124531
69	0x3dacf0f5	0.084443964
70	0xbd4a8852	-0.04944641
71	0xbc146bd9	-0.009058916
72	0x3e2d77b2	0.16940191
73	0x3e38bb07	0.18040095
74	0x3e14fc84	0.14549452
75	0xbc7aa5fa	-0.015298361
76	0xbdc80b25	-0.09767751
77	0xbe0552bb	-0.1301984
78	0xbd68dffa	-0.056854226
79	0x3d16a4d2	0.03677828
80	0x3aa08723	0.0012247305
81	0xbd2bf30c	-0.041979834
82	0x3cfa7871	0.030575009
83	0x3da89ee6	0.082334325
84	0xbdaacf7b	-0.08340355
85	0x3c8d6d9e	0.017264184
86	0x3d1348b0	0.035957992
87	0x3b790199	0.0037995337
88	0xbe053f05	-0.13012321
89	0x3d873b55	0.066031136
90	0x3ce30a54	0.027714886
91	0xbaf6d355	-0.0018831292
92	0x3e1063ae	0.14100525
93	0x3cfc7667	0.030818177
94	0xbc3841f8	-0.011246197
95	0x3d677669	0.05650941
96	0xbd0256cd	-0.03182106
97	0xbd81f5b2	-0.06345691
98	0x3d11b393	0.035571646
99	0xbdf3b12b	-0.118990265
100	0x3b9630ff	0.0045834775
101	0xbd554cb8	-0.052075118
102	0xbc1dd4ab	-0.0096332235
103	0x3d8cba6b	0.06871494
104	0xbd011e0f	-0.031522807
105	0x3cc9cb88	0.024633184
106	0xbca72e85	-0.020407924
107	0x3cd98710	0.02655366
108	0x3c64f244	0.013973776
109	0xbd2e8247	-0.04260471
110	0xbcc5cffb	-0.024147024
111	0x3d8edc4c	0.06975612
112	0x3ca5dc96	0.020246785
113	0xbcfbb1f7	-0.030724509
114	0x3d051322	0.03248895
115	0x3bafa72d	0.005360505
116	0x3da1c2df	0.07898497
117	0xbc57482c	-0.013139766
118	0xbce962ad	-0.028489435
119	0x3dbc38d5	0.09190527
120	0x3d185e5c	0.037199363
121	0xbd09891f	-0.033578034
122	0xbd99293c	-0.07478568
123	0xbd23f210	-0.04002577
124	0xbcbdfd19	-0.023191975
125	0xbda74147	-0.081667475
126	0x3d25f887	0.040520217
127	0x3db30481	0.087410934
128	0xbe24784d	-0.16061516
129	0x3cb85163	0.022499746
130	0xbc844de2	-0.016150419
131	0xbd3099c1	-0.04311538
132	0xbd1b9828	-0.037986904
133	0xbb2f600b	-0.0026760127
134	0xbd34136c	-0.043963835
135	0xbd63311a	-0.05546675
136	0xbd6aeb7e	-0.05735349
137	0xbdae41de	-0.08508657
138	0xbc3b1fc1	-0.011421145
139	0xbd3a8f7c	-0.045546994
140	0x3d156636	0.03647443
141	0x3ccd75d0	0.025080591
142	0x3d8f796e	0.07005583
143	0xbd63d6d6	-0.055624805
144	0x3d8cb743	0.06870892
145	0xbd546a42	-0.051859148
146	0xbd919135	-0.07107774
147	0x3d066ce2	0.032818682
148	0x3cce0496	0.025148671
149	0x3d8a8cef	0.06765162
150	0xbdab704c	-0.08371028
151	0x3d39521c	0.04524432
152	0x3c8fde77	0.017562134
153	0x3d7d0369	0.06177083
154	0xbd0991c9	-0.033586297
155	0xbd2747b8	-0.04083988
156	0xbd5645d2	-0.05231268
157	0xb998a9d4	-0.0002911823
158	0x3c39af50	0.011333302
159	0x3de41faf	0.11138856
160	0x3d0cb3c1	0.034351114
161	0x3d21c493	0.03949411
162	0xbbce2bd2	-0.006291845
163	0xbcaaa4aa	-0.020830471
164	0xbd2cb758	-0.042167038
165	0xbd811891	-0.06303514
166	0x3dff0e85	0.12453941
167	0xbce6b74e	-0.028163578
168	0xbd332cce	-0.0437439
169	0xbd70e145	-0.058808584
170	0xbd56366f	-0.052298006
171	0xbda4d449	-0.08048303
172	0x3bcd7a15	0.006270657
173	0x3da281e0	0.07934928
174	0x3aa143d8	0.0012303544
175	0x3d85fb06	0.065420195
176	0x3c9b90d1	0.018989952
177	0xbe1476a4	-0.14498383
178	0x3bb718c6	0.00558767
179	0xbcd40d4d	-0.025885249
180	0xbd93f212	-0.072239056
181	0x3d999989	0.07499988
182	0x3ce1342a	0.027490694
183	0x3cf84f45	0.030311236
184	0xbd820f89	-0.06350619
185	0x3db5eb43	0.08882763
186	0xbde39c80	-0.111138344
187	0xbdc55815	-0.09635941
188	0x3cc5dd69	0.024153428
189	0xbb8f50c9	-0.004373644
190	0xbd4000dd	-0.046875823
191	0xbce4aba0	-0.027913868
192	0xbd8f3757	-0.06992977
193	0xbe068960	-0.13138342
194	0x3a6c084b	0.00090039213
195	0x3d811e1c	0.06304571
196	0x3da5ecd5	0.08101813
197	0x3c16ef36	0.009212306
198	0x3d1ae9ef	0.037820753
199	0x3d71ac1d	0.05900203
200	0x3bbd0c18	0.005769264
201	0xbb45b5f7	-0.0030168274
202	0x3b0191e9	0.0019770807
203	0x3d0a154a	0.03371171
204	0x3d5a896c	0.053353712
205	0x3da3e1ba	0.08002038
206	0xbca27b97	-0.019834323
207	0xbdb9eb44	-0.090780765
208	0x3d9b07c3	0.0756984
209	0xbcc3e400	-0.02391243
210	0x3d0bf51e	0.03416931
211	0x3d666304	0.056246772
212	0x3d8cb59d	0.068705775
213	0xbd5c7b5a	-0.053828575
214	0xbdd4047b	-0.10352417
215	0x3c968d65	0.018377969
216	0x3d9336e7	0.07188206
217	0x3d91eb28	0.071249306
218	0xbd1885f8	-0.037237138
219	0x3cff8f0a	0.031196136
220	0x3dc624e0	0.09675002
221	0x3ccdd3d9	0.02512543
222	0x3e03ce1f	0.12871598
223	0xba3be038	-0.0007166895
224	0x3cd15607	0.025553716
225	0x3d1b1373	0.037860345
226	0xbdfd5c37	-0.12371104
227	0x3d0e4374	0.034732297
228	0x3dd23f69	0.10266001
229	0xbd7d44a2	-0.06183303
230	0xbbc8fe2a	-0.0061338143
231	0xbcddc445	-0.027071128
232	0xbd03f28e	-0.03221374
233	0x3ced87d8	0.02899544
234	0x3dbdf46e	0.09275137
235	0xbd519a30	-0.051172435
236	0xbd4ede67	-0.05050507
237	0x3bd66a26	0.0065434156
238	0x3dbc93f6	0.09207909
239	0x3d575834	0.05257435
240	0x3d03937c	0.032123074
241	0xbd89d651	-0.06730331
242	0xbc850d41	-0.016241672
243	0x3c8d3b84	0.017240293
244	0x3c8039fa	0.015652645
245	0xbcdfd989	-0.027325409
246	0xbb961749	-0.0045804125
247	0x3cd2133e	0.025643941
248	0xbd18b030	-0.0372774
249	0x3ddc7341	0.107641704
250	0xbcdf8fa8	-0.02729018
251	0xbd29f411	-0.041492525
252	0x3e066c1b	0.13127176
253	0x3cd20f99	0.025642203
254	0xbb5bb535	-0.0033524756
255	0x3cc13f24	0.023589678

fc2.bias f4 [96]
0	0xbdbeb4c8	-0.09311825
1	0x3d33b5af	0.04387444
2	0x3d8d3b49	0.06896073
3	0xbd9853bf	-0.07437848
4	0x3d0c7a06	0.034296058
5	0xbd51fdb4	-0.05126734
6	0x3d5557b6	0.0520856
7	0xbcaf2614	-0.021380462
8	0x3d8de644	0.06928685
9	0x3d4759b8	0.048669547
10	0xbd8458e8	-0.0646227
11	0x3c0b7e2e	0.00851397
12	0x3d642c11	0.055706087
13	0x3d8a0ee7	0.06741124
14	0x3d262e15	0.04057129
15	0x3dc1f100	0.09469795
16	0x3c9fcd86	0.01950718
17	0x3d9dbafa	0.077016786
18	0xbd35e2a9	-0.044405613
19	0xbc8941fc	-0.016755097
20	0xbc86771e	-0.016414221
21	0x3db844f8	0.0899753
22	0xbd0f2246	-0.034944795
23	0x3e1225a9	0.14272179
24	0x3dc2c8f5	0.09510986
25	0x3ccab3c4	0.024743922
26	0x3dd6e289	0.10492427
27	0xbdaad81e	-0.08342002
28	0x3c6747d2	0.014116244
29	0x3dc821bf	0.097720616
30	0xbd8f3464	-0.069924146
31	0xbcfe5b91	-0.031049522
32	0xbdace03c	-0.08441207
33	0x3d8509d4	0.06496015
34	0x3abee043	0.0014562685
35	0xbe14f704	-0.14547354
36	0x3da9eae5	0.08296756
37	0x3e09d06b	0.13458411
38	0x3ca52683	0.020159965
39	0x3df92193	0.12164607
40	0xbdd8f094	-0.10592762
41	0x3b85e5c8	0.00408623
42	0x3acb4a9d	0.0015509907
43	0x3cda6bdd	0.026662761
44	0x3c9da93a	0.019245733
45	0xbd15b845	-0.036552686
46	0x3e061324	0.13093239
47	0xbcbef75e	-0.023311313
48	0x3cd0434e	0.025422718
49	0x3d59473b	0.053046446
50	0xbdd3819b	-0.10327455
51	0xbe64b14b	-0.22333257
52	0xbe17c073	-0.14819507
53	0xbd08cb29	-0.033396874
54	0xbde67782	-0.11253263
55	0x3dbdf93f	0.092760555
56	0xbcc59748	-0.024119988
57	0xbd68eb1e	-0.05686485
58	0xbd5c85e1	-0.053838614
59	0x3d070d1c	0.032971486
60	0xbc9645f7	-0.018343909
61	0xbd9e4da0	-0.077296495
62	0xbd811992	-0.06303705
63	0xbd8af6d1	-0.06785358
64	0xbd9ca0cc	-0.07647857
65	0x3dc24ef8	0.09487718
66	0x3de0360e	0.1094781
67	0xbd176a4f	-0.03696662
68	0xbdea7f7e	-0.114500985
69	0x3cb91166	0.022591304
70	0xbccd46cd	-0.025058175
71	0x3d5bb9a9	0.053643856
72	0xbde1dd86	-0.1102858
73	0xbd8726e3	-0.06599214
74	0xbda73816	-0.081649944
75	0xbd18d700	-0.037314415
76	0x3d166c67	0.036724474
77	0x3dd07e8d	0.10180388
78	0x3dbaa005	0.091125526
79	0xbd26cf46	-0.040725015
80	0x3d0fbf1f	0.035094377
81	0x3e10c260	0.14136648
82	0xbd5be7a6	-0.053687714
83	0xbdcc022a	-0.0996135
84	0xbd8d4881	-0.06898595
85	0xbd53dabe	-0.05172228
86	0x3d8af498	0.06784934
87	0x3da69d76	0.08135502
88	0x3df686e2	0.120374456
89	0x3dd5c065	0.10437087
90	0x3c67d1ec	0.01414917
91	0xbd9e139d	-0.07718585
92	0x3b6b509d	0.0035906204
93	0xbb01d621	-0.0019811469
94	0xbd3ea447	-0.046543386
95	0xbcd52d7a	-0.026022661

fc3.weight f4 [96, 96]
0	0x3dbc7922	0.09202792
1	0xbd2b372d	-0.041800667
2	0xbc93cdbb	-0.018042436
3	0x3c40844f	0.011750295
4	0xbb4b33b1	-0.0031006152
5	0xbcdfd4fb	-0.027323237
6	0xbd71ab77	-0.059001412
7	0xbac93b21	-0.0015352705
8	0x3dd7e21e	0.10541175
9	0x3bc497b6	0.0059995307
10	0xbbfc3315	-0.007696519
11	0x3d8a2216	0.067447826
12	0x3d85cca5	0.065331735
13	0x3d65ab29	0.056071434
14	0xbd1009ca	-0.035165586
15	0x3d663234	0.05620022
16	0xbb8b09d4	-0.004243115
17	0x3c95cfc4	0.018287547
18	0x3d7ba4fc	0.06143664
19	0xbd8a1855	-0.06742922
20	0xbdf5d876	-0.12004177
21	0x3cac6b74	0.021047331
22	0xb9368ed3	-0.00017410079
23	0xbdb298b5	-0.08720533
24	0x3d5ed04e	0.054397874
25	0x3d3e4a20	0.04645741
26	0x3d81a035	0.06329385
27	0xbde779f2	-0.11302556
28	0xbcbc1493	-0.02295903
29	0x3c0b8f43	0.008518043
30	0xbcd91f3a	-0.026504148
31	0xbc31ffd6	-0.010864219
32	0xbd21f54f	-0.039540585
33	0x3d1d69ff	0.038431164
34	0xbd8b956d	-0.0681561
35	0xbe1868f9	-0.14883794
36	0xbd9d69d1	-0.076861985
37	0x3cd61e5f	0.026137529
38	0xbce59149	-0.028023379
39	0xbda17537	-0.07883685
40	0xbd536f60	-0.051619887
41	0x3d593056	0.053024612
42	0xbd2c5556	-0.04207357
43	0xbda4a461	-0.08039165
44	0x3d03a66d	0.032141138
45	0xbc67f7c5	-0.014158194
46	0xbd26d6bb	-0.040732127
47	0xbd0339f5	-0.032037694
48	0x3cfdf15e	0.030998882
49	0xbab54405	-0.0013829476
50	0x3d51c211	0.051210467
51	0x3d73fdb5	0.059568126
52	0x3d33f697	0.04393634
53	0xbd8f2547	-0.06989532
54	0xbcd02cad	-0.025411928
55	0x3d21b335	0.039477546
56	0x3d2f48a0	0.04279387
57	0xbd94d551	-0.072672494
58	0xbd238120	-0.039918065
59	0xbcb26d5b	-0.02178066
60	0xbd224f89	-0.039626632
61	0x3d5b0cf1	0.05347914
62	0x3de15ae6	0.110036656
63	0xbc9ca7e2	-0.019123022
64	0xbd954a60	-0.072895765
65	0x3dc28ac1	0.094991215
66	0xbd21b13f	-0.039475676
67	0xbd8177e4	-0.063216954
68	0xbccb8a38	-0.024846181
69	0x3d9b1455	0.075722374
70	0xbd864e68	-0.065579236
71	0xbda29798	-0.079390705
72	0x3db99920	0.090624094
73	0x3d5602a2	0.052248605
74	0x3d474375	0.048648316
75	0x3db7d8ab	0.08976873
76	0xbc589440	-0.013218939
77	0xbd6a8251	-0.057253186
78	0x3bdd4580	0.00675267
79	0x3d32bf11	0.043639246
80	0xbd1f04c0	-0.03882289
81	0x3d1dad55	0.03849538
82	0xbcff49f9	-0.031163203
83	0x3d266561	0.040624026
84	0x3c7225f3	0.014779556
85	0x3dd994fe	0.10624121
86	0xbcb29b53	-0.02180258
87	0x3da7b56e	0.08188902
88	0x3da7652b	0.08173593
89	0x3b11a300	0.00222224
90	0xbcb63c5d	-0.02224558
91	0xbd8ab694	-0.06773105
92	0xbd4ccfa5	-0.050002713
93	0x3d557d3e	0.052121393
94	0x3dea6815	0.11445633
95	0xbdac030d	-0.083990194
96	0x3d1cd960	0.038293242
97	0xbd33edfd	-0.043928135
98	0x3c7599a9	0.014990249
99	0xbd764a39	-0.060129378
100	0x3d2bad5d	0.04191338
101	0xbbcc3cc8	-0.0062328316
102	0xbc85502f	-0.016273586
103	0x3d8003be	0.06250714
104	0xbd3f614a	-0.04672364
105	0xbdb053b5	-0.08609716
106	0x3c40ee4e	0.011775566
107	0xbd98ec47	-0.07466941
108	0xbd5db206	-0.054124855
109	0xbd94456c	-0.07239804
110	0xbd459795	-0.048240263
111	0x3a7655fe	0.0009396969
112	0x3d19ef39	0.037581656
113	0xbd61a2bd	-0.05508684
114	0xbd88ed30	-0.06685865
115	0xbd6c8f51	-0.057753865
116	0xbda961dd	-0.08270619
117	0x3d43ce69	0.04780427
118	0xbc8e8d44	-0.017401345
119	0xbd87be02	-0.06628038
120	0x3b4fa7dd	0.0031685748
121	0x3dcd12e9	0.100133725
122	0x3d40201c	0.046905622
123	0xbd56a1ad	-0.05240028
124	0xbcb42968	-0.0219924
125	0xbd0c0048	-0.034179956
126	0x3dc598f7	0.09648316
127	0x3ca85528	0.020548418
128	0xbd97d3ca	-0.074134424
129	0x3d8e75e5	0.0695608
130	0x3d1e18e2	0.03859795
131	0xbd864a90	-0.065571904
132	0xbc9d82aa	-0.019227345
133	0x3bd2926b	0.006426146
134	0x3dab3ab9	0.0836081
135	0xbd37ddd8	-0.0448893
136	0x3d2d0cbb	0.04224847
137	0x3d56eaaa	0.052469887
138	0x3a54f447	0.00081235584
139	0xbda6e298	-0.08148688
140	0x3d8ee872	0.06977929
141	0x3e3784c9	0.17921747
142	0xbcc7d171	-0.024391862
143	0xbd9415f4	-0.0723075
144	0xbd80c538	-0.062876165
145	0xbdd0ca29	-0.10194809
146	0xbc01e1ca	-0.007927367
147	0x3d353b58	0.044246048
148	0xbdca1562	-0.0986736
149	0x3bde48ee	0.0067835962
150	0xbc8d1016	-0.017219584
151	0xbc28a3a2	-0.010292919
152	0x3d2788d9	0.040901992
153	0x3bc746fb	0.0060814596
154	0x3da66844	0.08125356
155	0x3a03b56c	0.00050242874
156	0xbbfc0f60	-0.0076922625
157	0xbdbbae16	-0.09164064
158	0xbdb0d6b6	-0.08634703
159	0xbd4944dd	-0.04913794
160	0x3cd9c9ce	0.026585486
161	0x3d3286fd	0.043585766
162	0x3d14e23d	0.03634857
163	0x3cc4f938	0.024044618
164	0xbbfee8ea	-0.0077792304
165	0xbd57a172	-0.0526442
166	0x3da536ba	0.08067079
167	0xbd7444c5	-0.059635896
168	0xbc6908af	-0.014223262
169	0xbda050d3	-0.07827916
170	0x3d9e6d0c	0.07735643
171	0x3db7510d	0.08951006
172	0xbd166843	-0.036720525
173	0x3dbe1bfe	0.09282683
174	0x3d87e29d	0.0663502
175	0x3c37c486	0.011216288
176	0xbda7afc6	-0.08187823
177	0xbda41400	-0.08011627
178	0xbc8f6732	-0.017505262
179	0x3cd1748a	0.025568265
180	0xbd69879e	-0.0570141
181	0x3d4d695a	0.0501493
182	0x3d8a26c1	0.06745673
183	0xb881a5c3	-6.182075e-05
184	0xbdab5690	-0.0836612
185	0xbdbcd4ab	-0.09220251
186	0x3d8f9a05	0.07011799
187	0x3bfcb8f7	0.007712479
188	0xbcada060	-0.021194637
189	0xbd7744ca	-0.060368337
190	0xbcd4f06d	-0.02599355
191	0x3e05fa66	0.130838
192	0xbc8144e6	-0.015779924
193	0x3d455d35	0.048184592
194	0x3c9735cd	0.018458271
195	0x3bf9da7a	0.0076249214
196	0xbca0b34e	-0.01961675
197	0x3d4f10bb	0.050553065
198	0xbdb287fb	-0.087173425
199	0x3d8100df	0.06298994
200	0x3d08bed0	0.033385098
201	0x3d3df418	0.046375364
202	0xbd96b9a3	-0.07359626
203	0x3d23d0df	0.039994117
204	0xbd52107e	-0.05128526
205	0xbbd280b8	-0.006424036
206	0x3cf0d552	0.029398594
207	0xbcdd38c2	-0.027004603
208	0x3d6ef859	0.05834231
209	0xbcd021b5	-0.025406698
210	0xbcd4cf8a	-0.025977869
211	0xbc0d8512	-0.0086376835
212	0xbd5fbe58	-0.054624885
213	0x3d4b2432	0.049595065
214	0x3cd75651	0.026286276
215	0xbc314b4f	-0.010821178
216	0xbde56ec8	-0.112027705
217	0x3ce0366b	0.027369699
218	0x3ce50b66	0.027959537
219	0xb9bbef2a	-0.0003584561
220	0x3d51f996	0.051263414
221	0xb92269e1	-0.00015488967
222	0x3cd75216	0.026284259
223	0xbb7764fd	-0.0037749403
224	0x3d667db6	0.05627223
225	0x3cb335dc	0.021876268
226	0xba8521e9	-0.0010157201
227	0xbcd01e85	-0.025405178
228	0x3cc3859d	0.023867423
229	0x3caf0104	0.021362789
230	0xbc33931c	-0.010960367
231	0x3ca83350	0.02053228
232	0x3d621863	0.05519904
233	0x3dc88502	0.09790994
234	0x3d63dc10	0.05562979
235	0x3cc65438	0.02421008
236	0x3c987016	0.018608134
237	0x3d0d3245	0.03447177
238	0x3d8bbe3d	0.068233944
239	0xbd4929ab	-0.049112003
240	0xbd6ac989	-0.057321105
241	0xbbaeb3fa	-0.0053315135
242	0x3d735ddf	0.059415694
243	0xbc0d76d2	-0.008634286
244	0x3c1ae234	0.009453345
245	0xbdc8c36b	-0.09802898
246	0xbd8ce9cf	-0.06880533
247	0xbd7be4ef	-0.061497625
248	0x3cb2c349	0.021821635
249	0xbd66a5f7	-0.05631062
250	0xbc8ad683	-0.01694799
251	0xbcd67ced	-0.026182616
252	0x3d2efd12	0.042721815
253	0x3c5c533d	0.01344758
254	0xbd83f9cd	-0.0644413
255	0x3c5574d7	0.013028345

fc3.bias f4 [96]
0	0xbca9f240	-0.020745397
1	0xbe4e2d99	-0.20134582
2	0x3cdb752e	0.026789274
3	0x3e2f35f6	0.17110428
4	0xbe5e8481	-0.21730234
5	0x3d057d63	0.03259028
6	0xbd4adc72	-0.04952664
7	0x3dbf9335	0.093542494
8	0xbc04ba94	-0.008101124
9	0x3dff41c0	0.12463713
10	0x3d02f7af	0.03197449
11	0xbe1eb09b	-0.15497057
12	0xbde34752	-0.11097588
13	0x3dcd4b59	0.10024137
14	0x3e188d2e	0.14897606
15	0xbdf26d03	-0.118371986
16	0x3e144d16	0.14482531
17	0xbe649dcd	-0.22325821
18	0xbe6be8be	-0.23038003
19	0xbe5473e3	-0.20747332
20	0x3e916f8d	0.2840542
21	0xbdc14188	-0.09436327
22	0x3e14e6c6	0.14541158
23	0xbdcf935f	-0.10135531
24	0x3e5ceafb	0.21574013
25	0x3d00654e	0.03134661
26	0xbd9e7ae9	-0.07738287
27	0x3def1148	0.11673218
28	0x3e4b0068	0.19824374
29	0x3d71fa92	0.059076853
30	0x3e52f849	0.20602526
31	0xbdae6257	-0.085148506
32	0x3d7f0d5b	0.062268596
33	0x3dc0dc88	0.09417063
34	0xbe09f813	-0.13473539
35	0x3e017ef9	0.12646092
36	0x3db8e5d2	0.0902821
37	0x3dc0af28	0.094084084
38	0xbd61c158	-0.055116028
39	0xbd85fba6	-0.06542139
40	0x3db9d21e	0.0907328
41	0xbde81323	-0.11331775
42	0x3e0b1522	0.1358228
43	0x3df6c645	0.12049536
44	0x3d9d1d74	0.07671633
45	0x3aeafc67	0.0017928005
46	0x3e36db25	0.17857035
47	0x3e348eae	0.17632553
48	0x3d2aebde	0.041728847
49	0x3e8a8050	0.2705102
50	0x3e12b095	0.14325173
51	0x3e35ccf6	0.17753968
52	0x3e8235f8	0.254318
53	0xbd921c7b	-0.071343385
54	0xbd6a12c8	-0.057146817
55	0xbde060b7	-0.10955947
56	0x3e0bdb90	0.13657975
57	0xbdcea489	-0.10089976
58	0xbe177085	-0.14789017
59	0x3de28ddb	0.11062213
60	0x3e6d6ac8	0.23185265
61	0xbe059a7b	-0.13047211
62	0x3e743467	0.23848115
63	0x3db2d6d0	0.087323785
64	0xbdbf2330	-0.09332883
65	0x3d89a592	0.06721033
66	0x3cd8a2b9	0.02644478
67	0xbe6f58cd	-0.23373719
68	0xbdb8f800	-0.09031677
69	0x3dfa90ee	0.122346744
70	0xbe157aa3	-0.14597563
71	0xbd9bcb15	-0.07607094
72	0xbdbcbc78	-0.09215635
73	0xbe34bf2a	-0.17651048
74	0xbd212a04	-0.03934671
75	0xba1bc11e	-0.00059415575
76	0xbda33bf4	-0.079704195
77	0x3e07578f	0.13216995
78	0xbe220504	-0.15822226
79	0x3e54591d	0.20737119
80	0xbe167293	-0.14692144
81	0xbe0bcdfb	-0.13652794
82	0xbdc37f89	-0.0954581
83	0x3d5c487d	0.053780068
84	0xbdc40e58	-0.09573048
85	0x3e2177f8	0.1576842
86	0xbd5266b9	-0.051367495
87	0x3ced39f4	0.028958298
88	0x3e01d375	0.1267832
89	0xbe14b37b	-0.14521591
90	0xbe2b4b8a	-0.16728035
91	0xbe45f662	-0.19332269
92	0xbdf2b8d4	-0.118516594
93	0x3c48a1e1	0.012245626
94	0x3e10889a	0.1411461
95	0x3de84966	0.11342125

fc4.weight f4 [4, 96]
0	0xbb9ae599	-0.004727077
1	0xbdb9d0a4	-0.09072998
2	0x3a06cf2a	0.0005142564
3	0x36ed95de	7.0805972e-06
4	0xbddb12ce	-0.10696946
5	0x3b0be93f	0.0021348742
6	0x3ade3c56	0.0016955237
7	0x3d13e1e9	0.036104117
8	0xbd07a529	-0.033116493
9	0xbc57b198	-0.0131649
10	0x3aeeec1f	0.0018228329
11	0xbde8802b	-0.11352571
12	0xbdab2bc2	-0.083579555
13	0xbb90eeec	-0.004423013
14	0x3e1949af	0.14969514
15	0x3d3bca63	0.045847308
16	0x3c2621b0	0.010139868
17	0x3c946dba	0.018118728
18	0xbd21d91f	-0.039513703
19	0xbdc377ce	-0.09544335
20	0x3e153950	0.14572644
21	0xba6567fe	-0.0008751153
22	0x3a1da908	0.00060142623
23	0x396fb759	0.00022861118
24	0x3e3874b9	0.18013276
25	0x3b099909	0.0020995757
26	0x3b4bdecb	0.0031108137
27	0x39dbb01a	0.0004190214
28	0x3d9c3e2e	0.07629047
29	0xbc1b574c	-0.009481262
30	0x3dd566d8	0.104200065
31	0x3b3e36fa	0.0029024468
32	0x3a38b650	0.00070462096
33	0x3c8e61e2	0.017380659
34	0xb92b3783	-0.0001632851
35	0x3dd2d8f0	0.10295284
36	0xbb5bd52c	-0.0033543808
37	0x3b3052f4	0.0026904913
38	0x3ad349bf	0.001612
39	0xbb23e655	-0.0025009115
40	0xbbb32677	-0.005467232
41	0xbb18c202	-0.0023308997
42	0x3cabfa20	0.020993292
43	0xbd10472c	-0.035224125
44	0xbada4dc5	-0.0016655257
45	0x3ad489f1	0.0016215426
46	0xbbc9e47e	-0.0061612716
47	0x3c9f53d5	0.019449154
48	0xbd8d5c6c	-0.06902394
49	0x3e0743b5	0.13209422
50	0x38b770cf	8.747132e-05
51	0x3d95749e	0.072976336
52	0x3d6e6603	0.058202755
53	0x3e13391a	0.14377251
54	0x38c0b62c	9.1892056e-05
55	0xbb5ea3ad	-0.003397207
56	0x3da232d5	0.07919852
57	0xbdd98650	-0.10621321
58	0xbd192d34	-0.037396625
59	0xb9f88b51	-0.00047406045
60	0x3c945c75	0.018110493
61	0xbb08d5f1	-0.0020879472
62	0x3d8b07cc	0.067885965
63	0xbab9ad59	-0.0014166042
64	0x3b0b3d32	0.0021246192
65	0x3de7e276	0.11322491
66	0xbb590418	-0.0033114012
67	0xbd36bb19	-0.044612024
68	0x3b043658	0.0020173993
69	0xb965717c	-0.00021881418
70	0xbdb550af	-0.0885328
71	0xbd48b9f4	-0.049005464
72	0xbb9b9879	-0.0047484008
73	0xbe1dd445	-0.15413006
74	0xbb828cec	-0.0039840844
75	0xbb5ad867	-0.0033393146
76	0xbc3d001c	-0.011535671
77	0xba8112ff	-0.000984758
78	0xbb11d388	-0.0022251327
79	0x3d30635a	0.0430635
80	0xbcfb9fec	-0.030715905
81	0xbd09b90f	-0.03362375
82	0xbd9dfbdb	-0.07714053
83	0xba31d862	-0.0006784258
84	0xbc3ef09d	-0.011654046
85	0x3c7b0e23	0.015323195
86	0x3b562218	0.003267413
87	0x3d75492b	0.05988423
88	0x3ae21aa9	0.0017250377
89	0xbdc9b2eb	-0.09848579
90	0xbdd699e3	-0.1047857
91	0xbde1f805	-0.11033634
92	0x3c21a177	0.009865156
93	0x3d0482dc	0.03235136
94	0x3ac2fb1f	0.0014875865
95	0x3d39782c	0.04528062
96	0xbacfc9b9	-0.0015852965
97	0xbddf2937	-0.10896533
98	0x3b09bbd8	0.0021016505
99	0x3ced6582	0.028979067
100	0xbdbdaf6f	-0.09261977
101	0x3c107282	0.008816363
102	0xbc6d5885	-0.014486437
103	0x3d3fd208	0.04683116
104	0x3cdba3db	0.02681153
105	0x3c482a01	0.012217046
106	0x3c145329	0.00905303
107	0xbd6dd3f9	-0.05806348
108	0xbd2120d8	-0.039337963
109	0x3b5a4769	0.0033306724
110	0x3d6b2b31	0.057414237
111	0xbc5efd32	-0.013610171
112	0x3d80e58c	0.062937826
113	0xbd245e98	-0.040129274
114	0xbd884728	-0.06654197
115	0xbdf72395	-0.120673336
116	0x3ddee5e0	0.10883689
117	0xbcdc8ee6	-0.026923608
118	0x3c556713	0.013025063
119	0xbce829e8	-0.028340295
120	0x3e157804	0.14596564
121	0x3c5c9560	0.013463348
122	0xbc0e0750	-0.008668736
123	0x3bcb6f34	0.006208325
124	0x3da8e869	0.08247454
125	0xbd418f3d	-0.047255743
126	0x3dc3dbd5	0.09563414
127	0xbc853d07	-0.016264452
128	0xbd66b1eb	-0.05632202
129	0x3d012539	0.03152964
130	0xbc5d07f8	-0.013490669
131	0x3da652af	0.081212394
132	0x3b3f2ded	0.002917166
133	0xbb7ee9ed	-0.0038896755
134	0xbb0d98ed	-0.0021606043
135	0xbb89e948	-0.0042087175
136	0x3d09aace	0.033610158
137	0xbd261757	-0.040549602
138	0x3d266d4a	0.04063157
139	0x3a8b2349	0.0010615374
140	0xbae2dcef	-0.0017308275
141	0x3c7ecf8f	0.0155524155
142	0x3d6f2143	0.05838133
143	0x3d5d91dc	0.05409418
144	0x3aeab059	0.0017905339
145	0x3e3105ef	0.1728742
146	0x3cfb366c	0.030665599
147	0x3d45eb76	0.048320256
148	0x3e0cddb2	0.13756445
149	0x3da4531c	0.08023664
150	0xba267513	-0.0006349843
151	0xbbd00de4	-0.006349312
152	0x3d531022	0.051529057
153	0xbca5a1e8	-0.020218804
154	0xbd0fd188	-0.035111934
155	0xbb7b9bfd	-0.0038392537
156	0x3de4972d	0.11161647
157	0xbb59843c	-0.003319039
158	0x3e1998c2	0.14999679
159	0x3b0041c1	0.0019570442
160	0xbb294c83	-0.0025832958
161	0x3c0cd736	0.008596232
162	0xbb565c06	-0.003270866
163	0xbdd61d0f	-0.10454761
164	0x3b8f49a1	0.004372791
165	0x3c89d186	0.016823541
166	0xbd8599a6	-0.06523447
167	0x3ca7529f	0.020425139
168	0xbbbad9f4	-0.0057022516
169	0xbddf085f	-0.108902685
170	0xbbbd4ce0	-0.0057769865
171	0x3b8d25ab	0.004307469
172	0xbb66486c	-0.0035138382
173	0xbadddc27	-0.0016926572
174	0xbd24f76d	-0.040275026
175	0x3dd0c6c4	0.101941615
176	0xbd2b0abe	-0.04175829
177	0xbda34c46	-0.079735324
178	0xbd3f1b0b	-0.04665665
179	0xbba4b05b	-0.005025906
180	0xbd23026f	-0.039797243
181	0x3b8f1828	0.0043668933
182	0xbb6beec6	-0.0036000474
183	0xbc8b973d	-0.01703989
184	0x3c063461	0.008191199
185	0xbcd99bee	-0.02656361
186	0xbd6405dc	-0.05566965
187	0xbd383162	-0.04496897
188	0xbc0198c7	-0.00790996
189	0x3d0211cc	0.031755254
190	0x3d3da676	0.046301328
191	0x3d5d63d6	0.05405029
192	0x3b687e0d	0.0035475523
193	0xbcd7db8a	-0.026349802
194	0x3ad543b1	0.0016270784
195	0x3c38160d	0.011235726
196	0xbde43230	-0.11142385
197	0xbc1c5bcc	-0.00954337
198	0xbb31c3a8	-0.0027124677
199	0x3d689feb	0.056793135
200	0xbce6c511	-0.02817014
201	0xbcc468cc	-0.023975752
202	0x3a9a0e34	0.00117535
203	0xbc623691	-0.013806955
204	0xbd812546	-0.063059375
205	0x3a66d467	0.0008805454
206	0xbc7b919d	-0.015354541
207	0xbd06e239	-0.032930586
208	0x3d189261	0.037248973
209	0xbd7cae61	-0.06168974
210	0xbe258f79	-0.16168012
211	0xbdeeaa81	-0.11653615
212	0x3e2dac54	0.16960269
213	0xbb693550	-0.0035584755
214	0x38da303c	0.000104040344
215	0xbbc6f9e1	-0.0060722684
216	0x3d8248ea	0.063615635
217	0x39b38bc9	0.0003424569
218	0xbbb39491	-0.005480357
219	0xb8ca7eec	-9.655752e-05
220	0x3d94874d	0.07252369
221	0x3cf255c0	0.029581904
222	0x3da3ea56	0.080036804
223	0x3ac13e02	0.0014743211
224	0x3d7f3dae	0.06231468
225	0x3ca3a7cf	0.019977478
226	0xbd8041fd	-0.06262586
227	0x3d25a72c	0.04044263
228	0x3b9ea756	0.0048417253
229	0xbc146c50	-0.009059027
230	0xb95b9ceb	-0.00020943924
231	0x3ba8ecf9	0.0051552025
232	0xbc53eff5	-0.012935628
233	0xbbbf7078	-0.0058422647
234	0x3da53718	0.08067149
235	0x3dbdd745	0.09269575
236	0xbb391852	-0.0028243256
237	0xbab5aacb	-0.0013860104
238	0x3dacf875	0.08445827
239	0x3caa3d2e	0.020781126
240	0x3c97eb05	0.018544683
241	0x3dccf32f	0.10007321
242	0x3c2b00a3	0.0104371635
243	0x3da07fa8	0.078368485
244	0x3df6a518	0.12043208
245	0xbd8348c9	-0.06410367
246	0x3b376f27	0.0027989836
247	0x3b09e941	0.0021043571
248	0x3d902e95	0.07040135
249	0xbdb8bc9b	-0.09020349
250	0xbe072b54	-0.13200122
251	0x3b2ba13a	0.0026188628
252	0xbb16fbe7	-0.002303833
253	0xbbbe4aef	-0.0058072726
254	0xbac2a0a9	-0.0014848906
255	0x3abf6033	0.0014600813

fc4.bias f4 [4]
0	0x3e1f0f03	0.1553307
1	0x3e3be071	0.18347336
2	0x3d7948a5	0.060860295
3	0x3d7787d6	0.060432278
